Project - Train a Deep Learning Model from Scratch/model_img128/intel_image-resnet9.pth (torch, 386592 bytes, 20 tensors)

network.0.0.weight f4 [32, 3, 3, 3]
00000000: ddcb c1bd ac2c 753d e304 03bd 6886 a2bd
00000010: b452 88bc 94c6 a73c 8613 fabc c8e0 04be
00000020: 7e56 f93d 30d5 11bd 6db8 f63d 4329 183e
00000030: 6fd6 ddbd 5e43 633b c0c2 5e3d 78b1 c9bd
00000040: 676a 0e3e 8dc7 0b3e 1565 d93d 5dde 133e
00000050: d9f9 ea3d 04fd 913d dcb8 853c ceef 82bd
00000060: 5cf2 2dbe 3319 e0bd 57df 38be 416f 3ebe
00000070: 6686 0e3e 9dd8 86bd 192e f6bd 6c54 bc3d
00000080: 905b 293e 7143 b93c c51e 68bc 87bb 313e
00000090: f094 a73d ac47 39be b4da 01be 401f 41bd
000000a0: a6e9 6a3d f2b7 06be b66a 29bc c44d 3b3e
000000b0: dc24 9abc 52a4 aabd 9485 21be fc12 b4bd
000000c0: b53d 40be a560 803d 8746 e93c 39f9 3cbe
000000d0: 3ce2 a43b 734b 39be 7bda 15be b208 e8bd
000000e0: c7e5 fe3d e670 ef3d 5732 00be 4613 0dbe
000000f0: 9b30 ec3c 072a f6bc bd70 11bd c860 ed3d
00000100: d906 1e3e 04cd 303e ee5d c93d 9ab5 c93d
00000110: b8cf f33c a9e2 753d 8344 23be 0112 cc3b
00000120: 5343 d0bd 6e8d 67bd 88f6 cbbd f93f 16be
00000130: b09b 3b3d 3724 25be 4213 69bd 60b9 18bc
00000140: 83d1 78bb 751d bb3d 1070 d93c f123 263e
00000150: bb1f f9bc 9b14 48be dfb4 043e a686 723d
00000160: 9427 04be 8350 0e3d 6ebb 37be d86c 1a3e
00000170: 7948 293d b0a8 4b3d e45d 2dbe 2c35 2e3e
00000180: 5946 32be 1897 dd39 6990 e93d cb75 f53d
00000190: 6897 a23d d447 debc fa79 0abd d596 10be
000001a0: 4b1a f03d afca 203e 596f 90bd f6c9 f2bd
000001b0: d82e 08bc 312f f23d 41f1 b7bd 75ed ebbc
000001c0: cf9f 00bd dcb4 4f3d fb80 97bb c068 22be
000001d0: b687 13be 13ea 3cbe fa60 0dbe f3f4 db3c
000001e0: 8f2c afbd ba3e 7d3d a9da 19be 9c31 3dbe
000001f0: 4228 97bd 0be8 c3bd edac 06be 4628 bcbc
00000200: a61e c13d 570f 26be 3435 f13c 79eb 0ebe
00000210: e7f9 3c3e c0f6 8ebd 50df 35be cd52 22bb
00000220: ed67 143e f01b 20bd 4646 14be b50b 1cbc
00000230: 08d3 833d b622 24be 80e9 2dbd 2472 22bd
00000240: 4294 053e c973 573d d500 223e 4c31 453c
00000250: e09f 1bbe f04b 983c 3632 743d e558 8fbd
00000260: 00eb 7f3d 3d34 483e 5bba 363d 50de b2bd
00000270: 861f 443d 5a0f a1bc 1eb5 363e b87c 03be
00000280: f609 e5bd 129c ac3d f96a 32bd 7abe e5bd
00000290: a733 05bc d366 323e f76c 2f3c 6fa2 8cbd
000002a0: 2fbf 11be 57e6 6b3d ce17 853c 05ad 003d
000002b0: 1a82 dc3c 89d3 7b3d 8575 1fbe 9266 01be
000002c0: 059a 10be dbe4 1ebc f0fa 18bb 0ea5 113d
000002d0: 7a50 b73d 56c5 363e d2e8 2ebe e910 3fbd
000002e0: 8d19 153e a376 63bc 462a 5c3b 230b 983d
000002f0: 4aeb 243e bba6 debd 0121 d63c 7a77 e33d
00000300: 577c b1bc 5521 643d 5b1b d7bd a807 21be
00000310: 933e 8ebc e9cf 2abe c6c4 7d3d 8fc4 ebbd
00000320: 5622 393e e7ca 2ebe f3ba 313e d9b6 29bd
00000330: ddd9 0cbe 6f7d 19be 2489 d53c 0d2c c0bd
00000340: 780d 87bd 4d43 f33d 17c7 153d f08b 263e
00000350: fc28 f33c a845 85bb 0512 26be 06dc 5abd
00000360: 6ba7 2c3e 65c6 2cbe c82c afbd 15cb fc3d
00000370: 9b70 58bd ce10 4abd 0eae 113e 9b08 873d
00000380: a9c9 023d eaf9 fd3c 8b1e e03d b5a7 a8bc
00000390: 2a48 1d3e 4e18 2ebe b34e f83c 3f61 57bc
000003a0: 1b8c d7bd 6c48 25bd f52c 18be 9078 1f3c
000003b0: 67cd 123e 19d1 ccbd 684c 06be 25aa 2a3e
000003c0: c39a 4cbc 30f7 c2bd 9da5 33be 9989 c5bd
000003d0: 6657 99bc 4d43 323e 702b 0b3e 8021 273b
000003e0: 27a1 8f3d a633 2ebe 4ce3 1d3e 87ec 853d
000003f0: 6e3f e9bd fdc4 30be 64e5 12be 7a86 243e
-0.09462712 0.059857056 -0.031987082 -0.07935792 -0.016640998 0.020480432 -0.030526888 -0.12976372
0.121747 -0.035603702 0.12046895 0.1485949 -0.108319156 0.0034677605 0.054384947 -0.098483026
0.13907777 0.13650341 0.10614983 0.14440294 0.11473436 0.07128337 0.0163235 -0.06393395
-0.16986984 -0.10942306 -0.18053947 -0.18597127 0.13918456 -0.065842845 -0.12020511 0.0919579
0.16538835 0.022615166 -0.014167492 0.17356692 0.081827044 -0.18093747 -0.12681085 -0.047148943
0.05735173 -0.13156107 -0.010340383 0.18291384 -0.018816404 -0.08332123 -0.15773612 -0.087926835
-0.1877354 0.062684335 0.028476013 -0.18454446 0.005031852 -0.18095188 -0.14634125 -0.113297835
0.1244617 0.116914555 -0.12519203 -0.13776883 0.02883177 -0.030049337 -0.035507906 0.11590725
0.154323 0.17265707 0.09832369 0.09849091 0.029762134 0.060030613 -0.15944104 0.006227732
-0.10169091 -0.056531362 -0.099591315 -0.14672841 0.045802772 -0.16127096 -0.05690313 -0.009321541
-0.0037966676 0.09136478 0.026542693 0.16224648 -0.030410638 -0.1953911 0.12959622 0.059210442
-0.12905723 0.03474475 -0.17942593 0.15080583 0.04132888 0.04972142 -0.16930348 0.17012471
-0.17409648 0.00042264978 0.11404497 0.11985358 0.07939035 -0.02713386 -0.033807732 -0.14120038
0.11723765 0.15702318 -0.07052488 -0.11854927 -0.00831195 0.11825407 -0.089815624 -0.028799752
-0.031402405 0.05070959 -0.00462353 -0.15860271 -0.14407238 -0.18448667 -0.13806525 0.0268502
-0.08553421 0.0618274 -0.15024818 -0.18475956 -0.073807254 -0.09565743 -0.13151903 -0.022968423
0.09429674 -0.16216789 0.029444315 -0.13957013 0.18454705 -0.069806576 -0.17760968 -0.0024768591
0.1449277 -0.039089143 -0.14479932 -0.009524276 0.064367354 -0.16028866 -0.04245901 -0.039659634
0.13044837 0.052600656 0.1582063 0.012035679 -0.15197706 0.018590897 0.059618197 -0.06999377
0.062479973 0.19551177 0.044611316 -0.08733809 0.047881626 -0.01966064 0.17842528 -0.12840545
-0.111835405 0.084282055 -0.04355905 -0.11217971 -0.008129991 0.17422037 0.010707132 -0.06866919
-0.14233087 0.057592716 0.016246703 0.031415004 0.026917506 0.061481033 -0.15572174 -0.12636784
-0.14121254 -0.009698118 -0.002334293 0.0355578 0.089508966 0.17848715 -0.17081001 -0.046646986
0.14560528 -0.013883266 0.0033594533 0.07423999 0.1610538 -0.10871645 0.026138784 0.11106773
-0.021665735 0.05569585 -0.105032645 -0.15725577 -0.017363822 -0.16680874 0.061955236 -0.115121
0.18079504 -0.17069589 0.17356472 -0.041434143 -0.13754983 -0.14989255 0.02606637 -0.09383402
-0.06594366 0.11878071 0.03656682 0.1626432 0.029682629 -0.0040671416 -0.16217811 -0.053432487
0.1686074 -0.16872557 -0.08553463 0.12343422 -0.052841764 -0.049332432 0.14226553 0.06593438
0.0319306 0.031002957 0.109433256 -0.020587781 0.1535956 -0.17001459 0.030310964 -0.013145744
-0.1052477 -0.04035227 -0.148609 0.009733334 0.14336167 -0.1000082 -0.13115084 0.16666467
-0.01248807 -0.095198035 -0.17543645 -0.09645385 -0.018718433 0.17408486 0.13590789 0.0025502145
0.07013159 -0.1701189 0.15418738 0.06539255 -0.113890514 -0.17262645 -0.14345318 0.16066924

network.0.0.bias f4 [32]
00000000: 342a d5bc 8cf5 37be cae9 fa3d 64d5 cf3d
00000010: 867c 17be 75e3 2c3e 4730 d9bb 4872 c3bc
00000020: c354 173e 2716 00bd 1cc8 ad3c 4de4 ebbd
00000030: 0be0 bbbd ea04 7b3d 7293 24be 9cfa 0bbe
00000040: 072f 94bd f888 8b3c 24f2 223e e8bd 10be
00000050: 2460 0dbd 55f8 6c3d 0d78 edbc 027f 233e
00000060: 9d70 a9bd 4f38 47bd 5703 c33b 9254 3a3e
00000070: 4381 323e f2ab 113d 5728 0c3e 17dc 033c
-0.0260211 -0.17964762 0.12251623 0.10148123 -0.14793596 0.16883643 -0.0066280696 -0.023858204
0.14778428 -0.031271126 0.021213584 -0.11518154 -0.09173592 0.061283983 -0.16071871 -0.13669819
-0.07235532 0.017033085 0.15912682 -0.14134943 -0.034515515 0.057854015 -0.028987909 0.15966418
-0.082734324 -0.048637684 0.005951326 0.18196324 0.17432122 0.03556437 0.13687263 0.008048079

network.0.1.weight f4 [32]
00000000: a4ad 7f3f 04be 7f3f 20a5 7f3f 9586 7f3f
00000010: 0229 7f3f 4b68 803f d711 813f 2112 7e3f
00000020: 798b 7f3f c375 7f3f 87ac 7f3f 7412 803f
00000030: 01c8 803f ac20 803f 9956 803f f712 803f
00000040: cf5d 7e3f bcd0 7f3f 4b16 803f 2394 803f
00000050: 56be 7f3f 5fed 7e3f 9efe 7f3f 6d6d 7e3f
00000060: cfb7 7f3f 5231 803f 9c24 803f 3c0c 7f3f
00000070: 5f60 803f 1149 7f3f d9cd 803f 68f6 803f
0.9987433 0.99899316 0.99861336 0.9981473 0.9967195 1.0031828 1.0083569 0.9924641
0.99822193 0.99789065 0.9987263 1.0005631 1.0061036 1.0009971 1.0026428 1.0005788
0.9936189 0.9992788 1.0006803 1.0045208 0.99899805 0.9958095 0.9999789 0.9938572
0.99889845 1.0015051 1.0011172 0.99628043 1.002941 0.99720865 1.006282 1.0075197

network.0.1.bias f4 [32]
00000000: 941b ac3b 3017 163b 35cf 8b3a 1feb 913b
00000010: b65d 8239 f64d 7b3b 99fc f33b f955 beba
00000020: 27eb 893b 8c8c f93b c091 0b3b 205e ab3b
00000030: 47b4 de3b b712 863b 6afc 1a3b bbde 1eba
00000040: db83 1fba c9c8 573a 9129 293b b464 5a3b
00000050: c2ef 243b 2a74 393b 661b faba 8297 4f3c
00000060: 4946 c93b 8048 ae3b 266d 3838 c2f6 da3a
00000070: 8839 0b3a 9f63 37b8 3bc3 993b 96ef 553c
0.005252311 0.0022902004 0.0010666611 0.0044530774 0.00024865352 0.003834603 0.0074458835 -0.0014521471
0.0042089405 0.0076156314 0.002129659 0.0052297264 0.006796393 0.0040915865 0.0023648986 -0.0006060411
-0.00060850166 0.00082315184 0.002581213 0.0033324184 0.002516732 0.0028298 -0.0019081652 0.0126704
0.006142412 0.0053187013 4.397067e-05 0.001670562 0.0005311002 -4.372338e-05 0.0046924627 0.01305761

network.0.1.running_mean f4 [32]
00000000: c3ec bfbc cfe2 34be 1ee5 003e ac2c d13d
00000010: 4742 0abe 9ade 2e3e 554f eebb ffe2 80bc
00000020: 707b 1a3e 9390 04bd caa0 df3c b3fe e4bd
00000030: ce08 c1bd e540 883d 5905 25be ca2e 08be
00000040: 5088 a4bd 7d22 863c 96d2 1e3e 8e4b 12be
00000050: 40f2 f7bc ed36 743d 0dc3 0dbd dff4 213e
00000060: 375b a3bd e17a 4ebd 0b1b 443c 6804 3a3e
00000070: aad6 2f3e e3ca de3c ced8 083e df28 dd3b
-0.023428326 -0.17664646 0.12587401 0.102135986 -0.13501845 0.17077103 -0.0072726407 -0.01573324
0.1508615 -0.03236444 0.02729835 -0.111813925 -0.094255075 0.06653003 -0.16115321 -0.13299099
-0.08033812 0.016373867 0.1551002 -0.14286634 -0.030266881 0.059622694 -0.034609843 0.15816067
-0.07976382 -0.050410155 0.011969338 0.18165743 0.17171732 0.027196353 0.13363954 0.006749257

network.0.1.running_var f4 [32]
00000000: 3fcd 9a3d 0335 1e3f 1e33 f23d a124 bb3d
00000010: f14f f73f 288e ff3d ae6b 363d 08fb b23e
00000020: 7d2a a93d cd06 263e 2795 f93e 5b14 a13e
00000030: 8ab6 163e adba c13e 69a4 f63d 6cc4 973e
00000040: 33ff 5e3f b67a 563d 77a1 b93e d831 e53c
00000050: 4b10 1e3e 60bf 8e3d 7082 d33e 9ed7 453e
00000060: 1b5a 363d 483c 233d 5fcf ce3e cb19 e13d
00000070: aa64 3a3e e1cb 483f 9c44 e63d 6ce0 3a3d
0.07558679 0.6179964 0.11826156 0.09137846 1.9321271 0.12478286 0.044536285 0.34957147
0.08260057 0.16213532 0.48746607 0.31460842 0.1471807 0.37837735 0.120430775 0.29642045
0.87108153 0.05236312 0.36256 0.027977869 0.15435903 0.06970096 0.41310453 0.19320533
0.044519525 0.03985241 0.40392587 0.10991248 0.18202463 0.78436095 0.11243555 0.04562418

network.1.0.weight f4 [64, 32, 3, 3]
00000000: a748 4f3d 2951 733d bbd3 0c3c 257a 2dbc
00000010: de47 11bc 1581 6b3d 39a0 36bc ea39 57bd
00000020: 4468 883b 9b66 c1bc 40c9 84bc 15fa c13c
00000030: 3307 25bd 82e0 8cbc 204d 863c 8647 9abc
00000040: edda 93bc 10b0 3a3d 83d9 aa3c e7ff 1cbd
00000050: 86db dbbc f33f 19bd b211 02bd 2c52 e53c
00000060: 4063 53bd 9251 a33c 3179 56bd 29c3 0dbc
00000070: 8c2d 263d ab28 acba 8981 eebc daaa 263c
00000080: 303c 4e3d 148c e1ba df57 07bc a4be 2abd
00000090: 1cee 253b 2ed0 503d 8b23 723b 8ca9 4e3c
000000a0: 3e0f a5bb 350f 3fbc 6115 2cbd 1c5b 79bd
000000b0: 0fd5 dc3b a162 a8bb b31c 18bc 4ab1 2f3d
000000c0: 97e9 f7bc 868f 30bd eaa4 44bc 03b2 5d3d
000000d0: 4bd7 ffbc db36 573d d993 10bc 2306 433d
000000e0: 7202 5abc f94a 203d 0793 13bc 8c91 0d3c
000000f0: 5f94 3ebd 064c 5a3d d82b af3c 50ad d73c
00000100: 510f 533c a893 2bbd ede6 6ebd 79f3 27bc
00000110: 5a89 20bd 3a5d 0f3d 10a2 a9bb 5435 823c
00000120: 7170 353d 299a 5bbd 525c 0fbc b050 0b3d
00000130: ccd1 663b fe62 20bc 4eae 32bd 01a2 ba3c
00000140: 5a1b d7bc 0649 a93c e59b f8bc 29b6 b33c
00000150: a7b9 eb3c 96c8 123d 9f79 3abd 2947 4cbd
00000160: fd1a 4b3d 934f b6bc 9627 cb3c 5b0d 44bc
00000170: 3f06 863c a062 24bd f0ca f1bc 07c4 c63b
00000180: 2fdb e2bc 2a2b dd3c e03e 90bc 3fe0 013d
00000190: aec8 683c e3ee 62ba 64a3 47bd 4164 b23c
000001a0: 5f4b afbc 3742 1a3c 5f9d bd3b 228c 48bd
000001b0: 7b5e 76bc bc81 f33c 0dba eb3c f77e c5bc
000001c0: 6e0e 6c3c d71a 123d 047d 3fbc d860 e93c
000001d0: 2c92 04bd 1d09 393c 323b 3bbd 41e9 903c
000001e0: 9abc 933a 14ce 89b8 248c c2ba 9b4d 72bd
000001f0: d9ae 3e3d 6c29 113c 18df ac3c 9aea bb3c
00000200: 1116 dcbc f722 1bbd 98e8 9ebb 7aca 0b3b
00000210: 24fd 4ebd 575b 483d bd19 93ba 7d65 2a3c
00000220: 402a f13c cb3a 403c 8b3f d5bc a706 1bbc
00000230: 00db 26bc 0415 003c 39cd 583d 237c f63c
00000240: b6e5 8a3c 8ba9 da3c 438d af3c 3247 d73c
00000250: 9cce 3d3d bc16 ef3c 6573 3bbc bcb4 e3bc
00000260: 102e 3ebd 8167 6e3c 59d8 66bc 0710 1ebc
00000270: 96de 58bd 62ef b13c d195 ba3c e5f4 f4bc
00000280: 6f0e 5b3d a27e 2b3b dca1 fc3c fdd9 393d
00000290: c066 37bd 5298 ee3c 2849 9f3c 2e1d 18bd
000002a0: 2e1f 4c3d 54d1 2e3d 488c a9bc 56aa 45bd
000002b0: b841 46bc fffe fb3c 3f45 3b3d 67d4 c43c
000002c0: 7fc2 98bc 6b92 74bd 4c36 17bc 0329 3d3d
000002d0: fd85 f23a b06d 6bbd a16a 2ebd 0d25 48bb
000002e0: 340c b43b f38f 503d 3570 cc3c f542 283d
000002f0: 3002 d93b 10ec 36bd 0c1a aebb 0c7b bfbc
00000300: 5d48 62bd dab6 3ebd 67ff 4f3d dea9 2dbd
00000310: f21a 333d 080a 0a3d 34d5 27bd 48ff 163c
00000320: 3983 6ebd 5a5d f8bb c319 55bd 8694 ec3c
00000330: b191 c6bc f930 323d 8701 e13c cb26 d0bb
00000340: aea5 e33c ad24 acbb 2d60 5d3d 4303 db3c
00000350: 737d 763c 423a b73c 50f1 6ebd 7312 543c
00000360: 46d3 673d 56ad 793c f79c de3c 607a 2a3d
00000370: a78c 26ba 438a 133d 1351 ab3c 9a45 27bd
00000380: 0f53 9fbc 0f44 993b 49e5 3a3d f5d3 283d
00000390: ca0d fb3c 803c 7c3b 58f5 103d 2949 c5bc
000003a0: 7c05 9ebc c09d f13c fa8f 703d fc02 febc
000003b0: b539 06bd 2e50 e8bb be33 c7bc 55cc b6bc
000003c0: 1c39 7dbc 6551 70bd 2f1a e9bc e31a 473d
000003d0: b4d7 f33c d730 483d 9d49 683c f9ec 233d
000003e0: d4f2 3b3d 3eb6 1b3d 557f 8b3c 1ff9 b6bb
000003f0: 0425 b53c 9c92 16bc a80b 2e3d 66f3 fabb
0.050606396 0.059403572 0.008595402 -0.010588204 -0.008867232 0.05749615 -0.0111465985 -0.052545466
0.00416282 -0.023608496 -0.016209245 0.023678819 -0.04029007 -0.017196897 0.016394198 -0.018832933
-0.018048728 0.045578063 0.02085567 -0.038329985 -0.026838075 -0.037414502 -0.031755157 0.027993284
-0.051608324 0.019936357 -0.05236167 -0.008652487 0.04057078 -0.0013134679 -0.029114502 0.01017257
0.050350368 -0.0017207884 -0.008260696 -0.041685715 0.0025318926 0.050979786 0.0036947455 0.012613665
-0.0050372174 -0.0116613405 -0.042012576 -0.060877904 0.0067392658 -0.0051387106 -0.009284186 0.042893685
-0.030262752 -0.043105625 -0.012002209 0.054124843 -0.03123059 0.05254255 -0.008824312 0.047613274
-0.013306247 0.039134 -0.009007222 0.008640658 -0.046528216 0.053295158 0.021383211 0.026327759
0.01288207 -0.041888863 -0.058325697 -0.0102509195 -0.03919349 0.035001017 -0.00517679 0.01589457
0.044296686 -0.053613815 -0.008750038 0.034012496 0.0035220264 -0.009789227 -0.04362326 0.022782328
-0.02625816 0.020664703 -0.030347774 0.021937447 0.02877505 0.035835825 -0.045526143 -0.04987255
0.049586285 -0.02225474 0.02479915 -0.011966075 0.0163604 -0.04013312 -0.029515713 0.0060658487
-0.027692406 0.026998121 -0.017608106 0.031708 0.014208002 -0.0008656813 -0.048739806 0.02177632
-0.021398244 0.009415201 0.0057865824 -0.048961766 -0.015037174 0.029724948 0.02877524 -0.024108393
0.014407737 0.035670128 -0.011687521 0.028488562 -0.032365963 0.011293677 -0.04571075 0.01768935
0.0011271418 -6.571054e-05 -0.001484279 -0.05915604 0.046553466 0.008859973 0.021102473 0.022939015
-0.02686599 -0.037875142 -0.0048495047 0.0021330402 -0.050534382 0.048915233 -0.001122288 0.010400173
0.029439092 0.011732767 -0.026031276 -0.009462035 -0.01018405 0.0078175105 0.05293009 0.03008849
0.016955238 0.026692173 0.021429664 0.026279066 0.046339616 0.029185645 -0.011441086 -0.027796142
-0.046430647 0.014551044 -0.014089667 -0.009647376 -0.05294665 0.021720592 0.022776516 -0.029901931
0.05348056 0.0026168008 0.0308389 0.045373905 -0.044775724 0.029125366 0.019444063 -0.037137203
0.049834423 0.0426801 -0.020696774 -0.048258148 -0.0121006295 0.03076124 0.045720335 0.024027063
-0.01864743 -0.059709948 -0.009229254 0.04618169 0.0018503066 -0.057477653 -0.042582158 -0.0030539662
0.005494619 0.05091853 0.024955848 0.04107948 0.006622575 -0.04465872 -0.0053131636 -0.023374103
-0.055244792 -0.0465611 0.05078068 -0.042398326 0.04372687 0.033700973 -0.04097481 0.009216137
-0.058230612 -0.0075794877 -0.05202652 0.028879415 -0.024239393 0.043503735 0.027466549 -0.0063522807
0.027788963 -0.0052533955 0.0540468 0.026734954 0.015044558 0.022366647 -0.058335602 0.012943852
0.05659797 0.01523908 0.027174456 0.041620612 -0.00063533563 0.03602053 0.020912683 -0.04083786
-0.019448785 0.0046773027 0.04562882 0.041217763 0.030646224 0.003848821 0.035390228 -0.024082737
-0.019289725 0.029494166 0.058731057 -0.031007282 -0.032769877 -0.0070896363 -0.024316665 -0.02231423
-0.0154555105 -0.058671374 -0.028454868 0.048609626 0.029765941 0.048874702 0.014177707 0.040020917
0.045885876 0.038015597 0.01702849 -0.005583897 0.022112377 -0.009190228 0.042491585 -0.00765841

network.1.0.bias f4 [64]
00000000: 16ad e8bb f716 bd3a c714 d4bc 1dac 18bc
00000010: 7470 273a 7126 573d 35b4 61bc 5b74 35bd
00000020: 229c 1dbd cbe9 cc3c efe2 653d 43ba 99bb
00000030: db69 433b b9c5 f93c 567b ae3b 9fb9 61bd
00000040: 0e73 d4bc 02b7 bd3c a56b 67bd 990e 39bd
00000050: f70c bd3b 9eb4 44bd 1a4f 5abb 9dc1 493d
00000060: 03e8 e9bc acac 6f3d e104 05bc 562d b1bc
00000070: a893 ed3c d7fe a83c 386f 1abd 6eba dfbb
00000080: 7918 2bb9 3136 253d 5400 c6bc 0d38 853c
00000090: 9548 d03c d80c 7d3c fb34 203d 24f2 2ebd
000000a0: 7f7d 99bc 55a9 7f3c 5dbc 7bbc 0312 b737
000000b0: 2889 b73a da2b b1bb 92fe 07bd afad 3dbd
000000c0: 0765 03bd 903b 25bd 84ad 53bd c574 013d
000000d0: 462d 38bc 50fd 213d aaa2 ea3c 3706 29bd
000000e0: a21b 55bd 454d 223d 709a 7f3c 7a79 1dbd
000000f0: 0223 57bd cc9f babc 2a64 d33b 425e 34bd
-0.0071007116 0.00144264 -0.025888814 -0.009318379 0.0006387301 0.052526895 -0.013775875 -0.04430042
-0.038478978 0.025013825 0.056124624 -0.0046913936 0.0029817733 0.03048979 0.0053247614 -0.055108663
-0.025933769 0.023158554 -0.056499142 -0.045179937 0.005769368 -0.048023812 -0.0033311308 0.04925691
-0.028553015 0.058514282 -0.008118839 -0.021628063 0.029001072 0.02062933 -0.037703723 -0.006827644
-0.00016316948 0.040334884 -0.024170078 0.016262079 0.025425235 0.015444957 0.039113026 -0.042711392
-0.018736599 0.015604337 -0.0153647335 2.1823687e-05 0.0014002668 -0.005406839 -0.03320176 -0.046308216
-0.03207877 -0.040340006 -0.05167915 0.0316055 -0.011241263 0.03954822 0.028642017 -0.041265693
-0.052028306 0.03962447 0.015600786 -0.038445927 -0.05252362 -0.022781275 0.0064511495 -0.044035204

network.1.1.weight f4 [64]
00000000: ab2d 7f3f 1937 803f 2d65 803f b55f 803f
00000010: 0a67 803f f07f 803f 9404 803f d402 803f
00000020: 6cd9 7f3f c89d 803f 0cd9 7f3f cefe 7f3f
00000030: ff2d 803f ab11 7f3f caab 803f d8ed 7e3f
00000040: f21f 803f c45a 7f3f bea5 7f3f 11b0 7f3f
00000050: 0e14 803f 23a3 7f3f 8a4f 7f3f d915 803f
00000060: 68ef 7f3f a4c3 7f3f 5538 813f c967 803f
00000070: c101 7f3f 081a 803f cc69 7f3f 733b 7f3f
00000080: d86a 7f3f 8979 7f3f e375 7f3f 93d7 7f3f
00000090: 63c3 7f3f f4fc 7f3f ddd0 7f3f 071a 803f
000000a0: 5a22 803f 0a81 7f3f dd83 803f 114f 803f
000000b0: 2029 803f 5d63 7f3f ba01 803f 78ad 803f
000000c0: f920 803f 429f 7f3f 8878 803f c10e 803f
000000d0: 2d27 803f bfd3 7f3f ad08 7f3f 98c2 7f3f
000000e0: 6565 7c3f 2e27 803f dfe5 7f3f 89fc 7f3f
000000f0: cb75 7f3f 2a54 803f f20c 803f ac0f 803f
0.9967906 1.0016814 1.0030876 1.0029207 1.0031445 1.0039043 1.0001397 1.0000863
0.99941134 1.0048151 0.9994056 0.99998176 1.0014037 0.99636334 1.0052426 0.9958167
1.0009749 0.9974787 0.9986228 0.9987803 1.000612 0.998583 0.9973074 1.0006667
0.9997468 0.999079 1.0095316 1.0031673 0.9961205 1.0007944 0.9977081 0.9970009
0.99772406 0.9979482 0.99789256 0.99938315 0.9990751 0.9999535 0.99928075 1.0007943
1.0010483 0.99806273 1.0040241 1.0024129 1.001255 0.9976099 1.0000527 1.0052938
1.0010062 0.99852383 1.0036783 1.0004503 1.0011955 0.99932474 0.99622613 0.999063
0.98592216 1.0011957 0.9996013 0.99994713 0.9978911 1.0025685 1.000395 1.0004783

network.1.1.bias f4 [64]
00000000: f6ca cf38 c3c0 ec3a 0357 59b8 76bc cc3a
00000010: b4d1 1f3b b4cc 783b a65f 273a f66f eb3a
00000020: e8cc 6b3a 9694 063b ae74 083b 8809 563b
00000030: bf98 e93a 1ac7 cb3a 2bce 83ba 59cb 04bb
00000040: 7396 70b9 cb26 3d3b bb53 a338 1df6 58ba
00000050: 9205 793a 06b6 643a abf1 38ba 938b fc3a
00000060: 8b89 c7ba ec41 1f3b 26fc 253b 4966 db3a
00000070: 6da8 3e3a f87f f2ba a607 493a a93d 143b
00000080: 7800 f939 039b 4fb9 5f75 98ba 2424 a3ba
00000090: 2f07 c33a b963 66ba 2a32 b6ba b7e0 4b3b
000000a0: 1ab2 6e3a acef a8ba 9d67 493b 2a65 173b
000000b0: 6021 c63a 54c5 9db8 645d 423b 5813 cab9
000000c0: 2905 e7b9 700e 003a 4419 daba fa56 a03a
000000d0: fb2d 1c39 a3fd 25ba 9e68 ea3a 2840 093a
000000e0: 2eed 533a ca77 c4ba 1985 9439 56a0 8c3a
000000f0: 5c3e e53a aa6e 843b 0d23 0eba 96c8 1c3b
9.9083336e-05 0.0018062819 -5.1817868e-05 0.001562013 0.0024386467 0.003796381 0.0006384797 0.0017962444
0.0008995072 0.0020535341 0.00208215 0.003265949 0.0017822011 0.0015547008 -0.001005595 -0.0020262806
-0.0002294423 0.0028862234 7.788042e-05 -0.000827642 0.0009499426 0.00087246334 -0.00070550543 0.001926767
-0.0015223486 0.0024300767 0.0025327294 0.0016738857 0.0007273022 -0.0018501272 0.0007668681 0.002261976
0.0004749333 -0.00019798805 -0.0011631659 -0.0012446684 0.001487946 -0.00087886635 -0.0013900448 0.0031109282
0.00091055187 -0.0012888811 0.0030731924 0.002310107 0.0015116148 -7.5230986e-05 0.0029657716 -0.00038542855
-0.00044063598 0.0004884964 -0.001663961 0.0012232952 0.00014894448 -0.00063320453 0.0017883962 0.0005235695
0.0008084354 -0.0014989313 0.00028327925 0.0010728936 0.0017489898 0.0040415125 -0.0005422093 0.002392327

network.1.1.running_mean f4 [64]
00000000: 1eee ac3e 501f b7be 0c56 23be 1478 713e
00000010: 5b27 f73d 27f4 79be 7d6b 85be 2634 46be
00000020: 643a 6ebe 0b96 48bd 7906 853d dc14 ae3e
00000030: c0f6 84bd 9288 3ebd d0b9 a1bd f9a1 843e
00000040: f8b7 d2be 2b49 8f3e 3b48 c43e 3cb2 cbbe
00000050: 884a 6dbe 9100 8bbe 4770 05be 88c4 9ebd
00000060: 7751 b43d df28 a83e 96be b13c b804 01bf
00000070: 5d61 ab3c 62d9 1ebe dde9 82be c26d c63e
00000080: 9a51 b23e 9435 113f 7145 c1be d2d2 2fbe
00000090: 2694 99bd 3787 b03d fb2a 423e 3764 1dbe
000000a0: b04a c83e a640 cfbe 896c e7be 3504 c7bd
000000b0: 5094 08be 3ad1 293c 7e17 88bc 41cf 5dbe
000000c0: d98e f4be d162 2fbe 978a babe 2385 80bd
000000d0: ac46 0bbe 830f 7bbe 5ec5 eb3d be42 60be
000000e0: 4c6b 2f3e 1da5 493f 4bf7 0bbd 55a4 11be
000000f0: e1a3 f33e 4141 83be 7e8d 783e f0d1 31be
0.3377542 -0.35766077 -0.15950793 0.23580962 0.12068053 -0.24409543 -0.2605857 -0.1935583
-0.23264462 -0.048971217 0.06495375 0.3400029 -0.06492376 -0.046516962 -0.07896769 0.25904825
-0.41155982 0.2798551 0.38336357 -0.3978442 -0.23172963 -0.2714887 -0.13031112 -0.07752329
0.08804601 0.32843682 0.021697324 -0.50397825 0.02092045 -0.15512612 -0.2556905 0.38755614
0.34827882 0.5672238 -0.37748292 -0.17170265 -0.0749896 0.0861954 0.18961708 -0.1537026
0.39119482 -0.4047901 -0.45199993 -0.09717599 -0.13337827 0.010364825 -0.016612764 -0.21661092
-0.47765234 -0.17127539 -0.3643386 -0.06275394 -0.13601178 -0.24517636 0.11512254 -0.2190046
0.17130774 0.7876757 -0.034171384 -0.14222844 0.47585967 -0.25635722 0.24272725 -0.17365241

network.1.1.running_var f4 [64]
00000000: d993 be3e 9c74 273e 12b9 3f3d 5851 4c3e
00000010: e8e4 883d 75cb e73d e9f2 793e 79b8 303d
00000020: 6dbf 333e c8e2 473d 29ae e53d 7d33 943d
00000030: a9c9 a33d 1180 f73d 96df e93d 78f6 733e
00000040: d249 0e3e c292 b63d 3e30 123e 23d3 983e
00000050: 662c 073e b180 0e3e 084b 793e 327f 363e
00000060: 1c3f 563d 3bdd 873d 44b3 2d3d c4f4 c73d
00000070: 4cbb 533e badf 6b3d 058f c43d 7830 ac3d
00000080: 0756 373e cc06 f33d cfc8 8e3d 9f23 823d
00000090: 29eb 193e dd3d df3e 8880 023e 27c3 8c3d
000000a0: 8124 853e 6086 f13d 348c 773d 1e0a ca3d
000000b0: bf56 883e e72b f03d 5041 a23d 339f 023d
000000c0: 5c08 153e d30d 1a3e 51e4 853d 36e1 ab3d
000000d0: 3a4b 673e 130b 0d3e 28b0 713d b0bb d03d
000000e0: 785d d43d a3f1 7a3e 91ac 643d d4ed 653d
000000f0: 04ef 203e 1c96 233d 5b75 f33d 3be2 633e
0.37222174 0.16353077 0.046807356 0.19952905 0.066842854 0.11318103 0.24409069 0.043144677
0.17553492 0.04880026 0.11214859 0.07236383 0.07997448 0.120849736 0.11419599 0.23824489
0.13895348 0.089147106 0.14276215 0.29848585 0.1320053 0.1391628 0.24345028 0.17821959
0.05230628 0.06633993 0.04240729 0.09763482 0.20676917 0.05758641 0.09597591 0.08407682
0.1790391 0.11866531 0.06971895 0.063544504 0.15031113 0.43601885 0.12744343 0.0687316
0.26004413 0.11793208 0.060436442 0.09865211 0.26628682 0.11727124 0.079226136 0.031890105
0.1455397 0.15044336 0.065376885 0.08392565 0.2258729 0.13773756 0.059005886 0.101920485
0.1036939 0.2450624 0.055828635 0.056135014 0.15716177 0.039938077 0.11887618 0.22254269

network.2.0.weight f4 [128, 64, 3, 3]
00000000: baf0 10bc bd46 2cbb 8c38 f33a e5ba bd3c
00000010: 3881 b5b9 c23a 4bbc 713b 88bc 7dd8 c4bc
00000020: c605 2abd 3151 fd3c 1bb2 f9bc 91de b83c
00000030: be0a ef3c 02e4 97bc 8621 963b 76a5 263d
00000040: a07e 3c3c 4b4a 823c e102 eebc c7c0 f73c
00000050: d084 c2bc bbcf 053d 540a e1bc 031c 30bc
00000060: 94b4 3e3c 757f cebc 6d1e 103d 1f9c ba3c
00000070: 9dfe 2f3c 21b5 993c e374 9a3c 918b 183d
00000080: e0bf b83c e1cf a8bc 7606 7f3c 15ed d1bc
00000090: 523f 1e3d aa3c 073c 094b 9bbc 6225 b038
000000a0: 5b83 89bc af9c 8b3c 4369 14bd 4bb7 12bd
000000b0: 8310 1bbc b98e f83b 223b a0bc 5d30 183d
000000c0: dfdd 5bbc 3007 bbbc feff 283d 84de aabc
000000d0: 24dc 643c c9dd d63c ecae e2bc d4a0 78bb
000000e0: b5c0 ff3c f7a5 f2bc 3e6f d83c 4fe7 4bbb
000000f0: 98f1 a1bc 5679 32bc 3c23 71bb 7a05 c53c
00000100: be72 24bd 1389 c03b dd6a b0ba 0f31 e5bb
00000110: 4df5 b33c a695 ec3c 9417 08bd 3f2f efbc
00000120: 0760 8fbc 49d8 ba3c 573d cdbc bc04 2abd
00000130: 62f7 c33b a6d0 22bd 5146 d2bb b322 023d
00000140: 28a8 7d3c 88e8 b43c cb67 69bc a57c ac3b
00000150: 884b 86bc 57ed 853c 5eb2 b73c bbb9 e2bc
00000160: 65d4 3e3b d310 163d 289b 3abc 54c1 b63c
00000170: b625 8fbc 3baa 28bd 93da 0fbd 5842 cebc
00000180: d14e eebc 3d0f 883c 98f9 133c 3e99 093d
00000190: a13d dabc cbe5 4ebc 5dfa 37bc bedc a8bc
000001a0: b16d 4f3c 4e33 24bd a3b1 513c 8cef 0fbc
000001b0: b1b1 37bd 888d 013d 8928 413c e493 12bc
000001c0: 1910 fbbc 40a5 37bd c4da 033d f684 0f3d
000001d0: 1b9a 103d 1b99 1cbc ed2a e0bc b8fc 35bb
000001e0: b52e a63b 429a cd3c 8a32 133d 1ef0 00bd
000001f0: 5aa9 02bb 8866 b1bc f85d 9c3c 3ca7 aab9
00000200: b069 aebc 7230 a8bc eef1 083d 07f3 89bb
00000210: 7330 ce3c 6cc0 a83a a5e5 c13b 7969 79bb
00000220: 2b10 213d 7fc0 9dba 5fdf e43b 09b3 643c
00000230: 7aec e53b d58f efbc 02c9 533c edf1 87bc
00000240: ea3b d0bc f4a0 16bd 26e0 f73c 7fca 023d
00000250: 4a94 e4bc f005 a3bc fea7 cc3c f56d 013d
00000260: 76a8 7bbc 3945 ecbc 6a24 153d 67b1 efbc
00000270: d096 2fbd 274b b13b 037d acbc 3961 b83c
00000280: b79c dd3c 2958 0e3d f3f3 25bc c3ca 9abc
00000290: 6af8 203d 52f0 6838 8e21 19bd 78e0 4dbc
000002a0: 044c dd3c 53af 8fbc 314b 993c 088a f4bc
000002b0: 0342 a3bc 8f81 f23c 3337 82bc 01cb 1dbc
000002c0: 1edb 45bc 4ef5 01bd 2dd0 10bc 6982 063d
000002d0: 47c3 e53c 4b9f 5f3c fc91 00bc 1d39 66bc
000002e0: 8d0b 9e3c 9a17 4abc 696e 86bc 5112 e83b
000002f0: 8fd4 203d 1a85 4ebc 7df0 023c 6f4b a8bc
00000300: 1915 093d 8009 ccbc 2fc8 1ebc ab48 a5bc
00000310: 0ffd 193d 2011 8d3a ad17 20bd f02a fcbc
00000320: cac4 0ebd f7e4 5abc d6b0 14bd 4a7f 653b
00000330: aa00 d43c c8a3 53bc 4022 293d 5ab4 b1bc
00000340: 519a 8e3c cb44 16bd 624c 633c bcd7 bc3c
00000350: 3a56 69bc 48d3 c93b d716 a63c ed7c 773c
00000360: dd43 f03c bc1a 413c 87fe e8bc 2ea1 edbc
00000370: c35c 0b3d 51fa 8c38 55d4 64bc 1c00 42bb
00000380: 612f 27bc f9c7 c63c e7a8 ecbc 78a4 5ebc
00000390: f4ec cbbb 9800 eebc ed73 a13c 017e cbbb
000003a0: f71d 04bd 2dca 9f3c aee6 2fbd 3033 97bc
000003b0: 3735 1b3d 8903 eabc 04c9 a93c cc76 6a3c
000003c0: 122e 14bd 3ddf d73c d1f2 973c 33d0 b8bb
000003d0: 36fa 2b3d ccde 613c a31c fdbc 92d8 3bbc
000003e0: b3d2 90bc 665a f1bc 4111 1abd d149 d83c
000003f0: e0e1 25bc 6a9b 04bd 85e5 ab3b cece 2bbc
-0.008846456 -0.002628728 0.0018556281 0.023160407 -0.00034619286 -0.012404146 -0.016629906 -0.02402901
-0.041509412 0.030922504 -0.030480435 0.022567065 0.029179927 -0.01854134 0.004581633 0.04068514
0.011504799 0.015904566 -0.029054107 0.03024329 -0.02374497 0.03266881 -0.027470745 -0.010748866
0.011639733 -0.02520726 0.035185266 0.022779522 0.010741857 0.018763127 0.018854564 0.037242476
0.02255243 -0.020606937 0.015565505 -0.025625745 0.038634606 0.0082542095 -0.018956678 8.399297e-05
-0.016786268 0.017042486 -0.036233198 -0.035819333 -0.009464386 0.0075853732 -0.019559447 0.037155498
-0.013419597 -0.022830576 0.04125976 -0.020858057 0.013968501 0.026228802 -0.0276713 -0.0037937658
0.03121982 -0.029620154 0.026420232 -0.0031113212 -0.019768521 -0.010893187 -0.0036794683 0.024050463
-0.04014849 0.0058757155 -0.0013459582 -0.0069943736 0.021967554 0.028879952 -0.03322561 -0.029197333
-0.017501844 0.02280821 -0.025053663 -0.04150842 0.005980418 -0.039749764 -0.006417074 0.031771373
0.015481986 0.022083536 -0.014245938 0.005263882 -0.016393438 0.016348524 0.02242392 -0.027676454
0.0029118296 0.03663714 -0.011389531 0.022308983 -0.017474037 -0.04117797 -0.035120558 -0.02517812
-0.029090317 0.016608829 0.009031676 0.03359341 -0.026640715 -0.012628029 -0.011229125 -0.02061307
0.01266043 -0.04008799 0.0127987 -0.00878514 -0.044847194 0.031629115 0.0117894495 -0.008946393
-0.030647324 -0.04483533 0.032191053 0.03503891 0.035303216 -0.009557988 -0.027364219 -0.002776904
0.005071486 0.02509797 0.03593687 -0.031478994 -0.0019937367 -0.021655336 0.019087777 -0.00032549526
-0.02129063 -0.020530913 0.033433847 -0.0042098793 0.025169587 0.0012874729 0.0059172683 -0.0038057251
0.03932206 -0.0012035518 0.0069846357 0.013958701 0.0070167156 -0.02924339 0.012926342 -0.016594851
-0.025419194 -0.03677459 0.03025825 0.031931397 -0.027902741 -0.019900292 0.024982449 0.031599004
-0.015359988 -0.028841602 0.03641168 -0.029259397 -0.042868435 0.00541057 -0.021055704 0.022507297
0.027052267 0.034752045 -0.010128963 -0.018895512 0.039299406 5.5536926e-05 -0.037385516 -0.012565725
0.027013786 -0.017539656 0.018712612 -0.029850975 -0.019928938 0.029602794 -0.015895462 -0.009630919
-0.012076167 -0.03172808 -0.0088386955 0.032839213 0.028047217 0.013648818 -0.007847305 -0.014051703
0.019292617 -0.012334729 -0.01641007 0.0070822616 0.03926521 -0.012604976 0.007991907 -0.020543782
0.033467386 -0.024906874 -0.009691282 -0.020176252 0.03759485 0.001076255 -0.03908508 -0.030782193
-0.03485564 -0.013360254 -0.036301456 0.0035018497 0.025879223 -0.012917466 0.04129243 -0.021692444
0.017407568 -0.0366867 0.013873192 0.023052089 -0.014241749 0.00615922 0.020274563 0.015105468
0.029329235 0.011786159 -0.02844168 -0.02900752 0.03402401 6.722345e-05 -0.0139666395 -0.0029602116
-0.010204167 0.024265276 -0.028889133 -0.013589017 -0.0062233154 -0.029053017 0.019708598 -0.006210089
-0.03225514 0.019505585 -0.042944603 -0.018457025 0.037892547 -0.028566139 0.020725735 0.01431055
-0.03617675 0.026351565 0.018548401 -0.0056400537 0.041986667 0.013786029 -0.030897444 -0.011465209
-0.017678594 -0.02946205 -0.03761411 0.026402386 -0.010124654 -0.032374777 0.0052458667 -0.010486318

network.2.0.bias f4 [128]
00000000: 305a 3b3c 3450 053d e8b4 933c 6693 0bbd
00000010: 6039 01bd 5b14 eebc b0f8 253c d72e 123d
00000020: 60eb db3c cece d43c f0f7 ca3c 8082 8a3a
00000030: 7bfa 6cbc 6f6f 09bd 139a 973c abac d53b
00000040: c8cb 17bd 8085 76bb 16c6 4f3c 8008 aebc
00000050: cb87 e03b eb85 f5bc 7c9c 24bd 1cc7 063d
00000060: 8f26 20bd 487f da3c 766f c9bc 762a e53b
00000070: 1028 663c de42 f83c 5b0c e63c 9b6c aa3c
00000080: 3848 8c3c aa9a 0fbd 3888 aabc 6077 2b3c
00000090: 5613 adbc cb0f 043d f33c b63c 6eb7 cabc
000000a0: a435 10bd 4e46 f73c 0bfc c63b dbe6 903c
000000b0: 9e23 e53c de88 e13c 5e49 d2bc 9681 9f3c
000000c0: 33c0 043d 1bb1 4ebc 1bf7 a0bc bfff 1b3d
000000d0: d018 7bbc 00ff 01bd 7352 b1bc 70c7 40bc
000000e0: f647 e2bc 3cb2 18bd e053 fdbc 6029 373c
000000f0: abc3 193c abb9 183b 0375 dfbc b362 ba3c
00000100: 7389 06bd 765e 943b 2016 a93c 8b2c 12bc
00000110: c05c 3ebb 4684 343c bbf8 0cbd d6d2 33bb
00000120: 306c e83c eb73 fd3b 86b3 003c 00a0 08bd
00000130: 6bf3 a03c 1b88 eabc ab13 713c b876 9f3c
00000140: 881c df3c 1f35 263d f6ac 123d 2b6d 12bb
00000150: 58ac 99bc 0027 72bb 0096 963a cb71 23bc
00000160: 5661 9b3c 3b55 96bc 6b44 cebc 7bc2 fc3c
00000170: afd3 273d fbb4 6e3c ab66 67ba 4098 39bc
00000180: 781a babc 88b4 fc3c 231c 0b3d 48b7 81bc
00000190: 6674 183d 466d 163c c3d5 db3c 56a1 013a
000001a0: aff2 c4b9 0b5a e6bc 08ca f6bc b39e 1dbd
000001b0: 9023 253c 1048 71bc b606 3f3c ab7d d0bc
000001c0: 80fb 123d fef7 c539 52e5 293d 76b2 533c
000001d0: ac32 09bd e3da e2bc d31a 9bbc fd12 2a3a
000001e0: a6e2 f6bc 6f74 17bd a3ae d8bc b83e a4bc
000001f0: 0bd2 e33b cb47 233d 1660 cd3c e8c2 b6bc
0.011435077 0.03254719 0.018030599 -0.034076117 -0.031548858 -0.02906244 0.0101300925 0.0356892
0.026845634 0.025977518 0.024776429 0.0010567456 -0.014464016 -0.033553537 0.018506086 0.0065208278
-0.037059575 -0.0037616193 0.012681505 -0.021244287 0.0068521253 -0.029971084 -0.040188298 0.03290473
-0.039099272 0.02667202 -0.024589282 0.006993587 0.014047638 0.030305322 0.028082063 0.02080374
0.01712428 -0.03505961 -0.020816907 0.010465473 -0.021127384 0.032241624 0.02224586 -0.02474567
-0.035207406 0.030184891 0.0060725263 0.017688205 0.027971085 0.027531084 -0.02566975 0.019470971
0.032409858 -0.012615467 -0.01964908 0.038085695 -0.01532574 -0.031737328 -0.02164576 -0.0117663
-0.027622204 -0.037279353 -0.030923784 0.011179298 0.00938503 0.0023304026 -0.027277475 0.022752142
-0.032845926 0.004527862 0.020640433 -0.008921753 -0.0029046983 0.011017865 -0.034416895 -0.00274389
0.0283719 0.0077347658 0.007855302 -0.033355713 0.01964732 -0.028629353 0.014714162 0.01946579
0.027235284 0.040578004 0.03580948 -0.0022342901 -0.018758938 -0.0036949515 0.0011488795 -0.009975861
0.018967312 -0.018351188 -0.025179109 0.030854454 0.04097336 0.014569516 -0.00088272494 -0.011327803
-0.0227177 0.030847803 0.03396238 -0.015834466 0.03722038 0.009181326 0.026835328 0.00049450004
-0.00037564847 -0.028119108 -0.030125633 -0.038481425 0.01007928 -0.014726654 0.011659315 -0.025450548
0.03588438 0.00037759537 0.041478463 0.012920966 -0.03349559 -0.027692264 -0.01893369 0.0006487815
-0.030137371 -0.036976274 -0.02645046 -0.020049438 0.0069525293 0.03986339 0.025070231 -0.022309735

network.2.1.weight f4 [128]
00000000: 41de 7f3f 5ae2 803f 984e 803f 8a3a 813f
00000010: b448 813f 3d6d 803f 065f 803f 12c6 803f
00000020: 84e4 803f a9a9 803f c6b4 803f 4b04 803f
00000030: 4201 803f f4d4 803f 727f 803f b7f5 7f3f
00000040: f416 803f c55c 803f fe99 803f 6ce2 803f
00000050: 0194 803f b27a 803f 1897 7f3f 36d4 7f3f
00000060: e017 803f 8dba 803f e556 803f ff41 803f
00000070: b9a8 803f e131 803f 821b 803f 1324 803f
00000080: e0f1 803f 3ef0 803f 9820 813f 19ec 7f3f
00000090: fd09 803f 0276 803f ba9e 813f 3768 803f
000000a0: 921b 803f e025 803f 3f72 803f 024e 813f
000000b0: 8ddc 803f dd4c 803f 09c2 803f 83ef 803f
000000c0: 2a75 803f 1da7 803f 5c3e 803f 44b5 803f
000000d0: afc0 803f 2a74 813f 829d 813f bcae 7f3f
000000e0: 1e85 803f c40d 803f f93f 803f 4e57 803f
000000f0: 02e1 803f 7ee3 803f b05e 803f ac7f 803f
00000100: 182e 803f 811a 823f a958 803f fbb8 7f3f
00000110: 1009 813f ad8f 803f 052f 803f ff5f 803f
00000120: 4a17 803f e760 803f e618 803f 6439 803f
00000130: 314a 823f 6d95 803f 9c2b 803f 5583 803f
00000140: eb10 803f f30d 813f eb7c 803f 834d 803f
00000150: 4105 803f c8fd 7f3f 3d84 803f 0371 803f
00000160: 29ac 813f 281c 803f a9ce 803f b770 803f
00000170: ca40 813f 3f56 803f 3399 803f f787 803f
00000180: 9bdb 803f 7f9e 803f 4d49 803f 7cc3 803f
00000190: 6813 813f 6589 803f 5624 803f c4e8 7f3f
000001a0: 943c 823f b1d7 7f3f cf99 803f 5f0b 803f
000001b0: dd28 803f 625d 803f b32c 803f 927d 7f3f
000001c0: d007 803f 4e92 7f3f c8e4 803f 9a59 803f
000001d0: 9cce 803f 9717 803f 5761 803f 3639 803f
000001e0: 3766 803f 4261 803f 1281 803f d3fe 7f3f
000001f0: 8734 803f f7a2 803f 8841 803f 1c83 803f
0.9994851 1.0069077 1.0023985 1.009599 1.0100312 1.0033337 1.0028999 1.0060446
1.0069737 1.0051776 1.0055168 1.000131 1.0000384 1.0064988 1.0038893 0.99984306
1.0007005 1.0028311 1.0046995 1.0069098 1.0045167 1.0037444 0.99839926 0.99933183
1.0007286 1.0056931 1.0026518 1.002014 1.005149 1.0015222 1.0008395 1.0011009
1.0073814 1.0073316 1.0088072 0.9996963 1.0003048 1.0036013 1.0126565 1.0031804
1.0008414 1.0011559 1.0034865 1.0101931 1.0067307 1.0023457 1.0059215 1.0073093
1.0035756 1.0050999 1.001903 1.0055318 1.0058802 1.0113575 1.0126193 0.99876
1.0040624 1.0004201 1.0019523 1.0026643 1.0068667 1.0069425 1.0028896 1.0038962
1.0014067 1.0164338 1.0027057 0.9989163 1.0080891 1.0043846 1.0014349 1.0029296
1.0007107 1.0029572 1.0007598 1.0017514 1.0178891 1.0045601 1.0013309 1.0040079
1.0005163 1.0082382 1.0038122 1.0023655 1.0001603 0.99996614 1.0040356 1.0034488
1.0130664 1.0008593 1.0063068 1.0034398 1.0097897 1.002632 1.0046753 1.0041493
1.0067018 1.0048369 1.002237 1.0059657 1.0084047 1.004193 1.0011089 0.9996455
1.0174737 0.99938494 1.0046939 1.000347 1.001247 1.0028498 1.0013641 0.9980098
1.0002384 0.9983262 1.0069818 1.0027344 1.0063052 1.0007199 1.0029706 1.0017459
1.0031193 1.0029681 1.0039389 0.99998206 1.001603 1.0049733 1.0019999 1.0040011

network.2.1.bias f4 [128]
00000000: 1507 e538 8642 7bb9 5845 eb39 b0ee f239
00000010: f77e 3dba 8712 513a 0666 28b9 2b7c 27ba
00000020: fc03 483a 22fc 26bb 7786 b3ba 4d21 9aba
00000030: 9c7e 67b9 adab 60b9 64a4 813a d6ff 3b3a
00000040: 7020 05ba a3f1 cb3a 5704 50ba b126 f03a
00000050: 2090 94b9 107c b3ba 934e 2f39 8e38 9f39
00000060: 9635 7aba 940f 913a df27 a6b9 7f8a 0dba
00000070: 5ae4 3139 6f0a 89ba 630c a039 8d01 47ba
00000080: aa3c bc3a 6366 38ba 6847 91b9 170e 743a
00000090: 2473 5db9 0da8 293a 8c01 fa39 1193 c8b9
000000a0: 8aad b83a b8a6 d539 9b36 9339 31b6 08bb
000000b0: 8b1a 89b9 5c4c e039 8755 3eba 534a 233a
000000c0: 4955 86ba 9e79 d7ba cb36 a83a 6047 d537
000000d0: 39a9 5c3a 755e 38bb 916d c837 fd91 16b3
000000e0: 60e3 deba 0167 1aba 1c98 ffba 5853 bd39
000000f0: 11e3 853a 652c 54b9 97d0 d0ba bb2b ab3a
00000100: c3f7 94ba c2df b639 6e70 1e3a f7fd 1bb9
00000110: 9f21 d6ba 4a7b ecba d2bf 21ba 225c 9db9
00000120: 0b1b f6b9 0575 993a a9b5 9c39 44f1 87ba
00000130: a374 17bb cb96 073a 121d feba bf66 9739
00000140: 60c9 233a 378b e9ba d56a 19ba 54b5 cdb9
00000150: 8118 82b9 0eb9 8b39 4496 afb9 2db7 e139
00000160: 208c 3e3a e88a 133a 5e90 4b3a 3d11 53ba
00000170: f6df 16bb 1c2a 343a e990 713a 2340 f637
00000180: fcee ff39 bf9c 55ba c90a bfba 02de e0ba
00000190: 6347 48ba dd2d 4cba d4bd 97ba 2393 83b7
000001a0: a21b 813a 72dd 8eb9 bb90 2fba 3a38 4cba
000001b0: c467 2f38 d45c 3cba 4e86 8a3a 77fe e539
000001c0: 8062 8fb8 78f1 efba 68da 86b9 e52c d9b7
000001d0: d6ac b33a 8b32 aa3a 1ca9 093a 0791 27b7
000001e0: f6f9 c1ba 87a5 b7b9 9f77 133b d72e 333a
000001f0: 7f83 7a39 faf2 60b9 e9b7 d63a 1ab4 723a
0.0001092089 -0.00023962007 0.00044874358 0.00046335673 -0.0007228697 0.0007975478 -0.00016059735 -0.0006389047
0.0007629988 -0.0025479873 -0.001369669 -0.0011759192 -0.00022077042 -0.00021426259 0.0009890911 0.00071716064
-0.0005078381 0.0015559684 -0.0007935217 0.0018322078 -0.0002833614 -0.001369359 0.00016718572 0.0003036898
-0.0009544728 0.0011067265 -0.00031691694 -0.00053993607 0.00016965103 -0.001045538 0.00030526807 -0.00075914786
0.0014361341 -0.00070343 -0.00027709757 0.0009309961 -0.00021119096 0.000647188 0.00047684868 -0.00038256546
0.0014089805 0.0004075074 0.0002807871 -0.0020860548 -0.00026150452 0.00042781502 -0.00072606694 0.0006229032
-0.0010248806 -0.0016439443 0.0012833712 2.5424815e-05 0.000841755 -0.0028132473 2.3892879e-05 -3.5057372e-08
-0.0017005019 -0.00058899826 -0.0019500288 0.00036110985 0.0010214766 -0.00020234434 -0.0015931305 0.0013059297
-0.0011365343 0.00034880458 0.0006043975 -0.00014876561 -0.0016336924 -0.0018042114 -0.0006170246 -0.00030014018
-0.00046940925 0.0011707848 0.00029889986 -0.0010371585 -0.0023110292 0.0005172311 -0.0019387326 0.00028877516
0.0006247964 -0.0017817979 -0.0005852406 -0.00039235747 -0.0002481379 0.00026650022 -0.00033490558 0.0004305182
0.0007268805 0.00056283036 0.0007765348 -0.000805158 -0.0023021675 0.000687273 0.00092150137 2.9355351e-05
0.00048815447 -0.0008148662 -0.0014575358 -0.0017156007 -0.0007640032 -0.00077888166 -0.0011576959 -1.5684933e-05
0.0009850154 -0.0002724934 -0.0006697287 -0.0007790361 4.181989e-05 -0.00071854633 0.001056859 0.00043867875
-6.8371184e-05 -0.0018306216 -0.00025721197 -2.5889321e-05 0.0013708125 0.0012985034 0.00052513345 -9.9877425e-06
-0.0014799226 -0.00035027807 0.002250172 0.0006835288 0.00023890844 -0.0002145282 0.0016381714 0.00092584046

network.2.1.running_mean f4 [128]
00000000: b8f4 babe 8be1 2ebe 2ebf acbe eb4e c9be
00000010: 2114 babe b59e 103e 5da6 69bd ecf5 40be
00000020: 39ef abbe 1c78 d93d 81ad 90be 4187 c7be
00000030: d239 0ebf 70e5 39be 3026 d0be 4a5f f33e
00000040: 5fda 953e 8093 28bf 7aa5 343e a2a8 9b3d
00000050: f36b 9fbe b68d 08bf f652 a13d 6abe bc3d
00000060: 229a 633e e18b 2dbd 83d1 1f3e 1f11 01bd
00000070: a187 cdbe f775 8d3d 48d1 cdba 28e2 81bf
00000080: 7f26 f3be c96c 683e 1b9d 863d ac3a 853e
00000090: 3773 c73e 97db 4bbf bb90 89bf e3e1 883e
000000a0: 267d 49bf 5944 f33e a9b2 f3be ef49 97be
000000b0: c4db 07bf 45fa c6bf 689c 85bf f126 42bf
000000c0: 88ec 213e c43f 9bbe 226a 03bf 9409 e03e
000000d0: 45c7 69bf f75d 2dbe 262f 6e3e 11a0 2fbf
000000e0: b34d 49be cc0b b0bc cce0 333f 3590 223e
000000f0: d160 88be bbf1 45bf 3f28 00be c8d6 72bd
00000100: 4724 ab3e b18d 9cbe 3329 1fbf db1b 4cbf
00000110: 06fe c5be f87a 05bf ec3d f5bd da7d 4abf
00000120: 9b42 573e baca 25be dcdb 293e 717b 3c3e
00000130: e31e c8bd ea0d b4be f23d a03f 1fa7 28be
00000140: df22 10bf 89a7 a4be 6dfa 0abd 0169 e0be
00000150: 54f3 673f f741 c0bd 4097 623e 2d8f 5bbf
00000160: 1072 c5bd b2e0 153f ecdc e0be e8f2 5dbe
00000170: 84da 653b a274 08bf f57b 83bd 0b38 88bd
00000180: da7d fcbe 49e0 013f 111f 8e3e ac8c dabc
00000190: 20e7 a6be 314e a0be d83d b2be d460 883e
000001a0: 69bd 66be 90f1 5fbf 72fd 6abf 77d6 5bbe
000001b0: 8765 c9be 8951 4fbb a0d5 adbe 68c7 1a3f
000001c0: be29 a8be c958 60be 28f1 15bf a6fb 0a3d
000001d0: caa8 f3be d944 1c3f e48e e9bd ba30 59be
000001e0: c53c 8a3e ef8a 18bf e01c dfbe 5d53 79be
000001f0: e169 66bf a62f 8f3e 0999 2fbe 3fa6 963e
-0.3651483 -0.17078225 -0.3373961 -0.39318022 -0.36343482 0.14123042 -0.057043422 -0.18843812
-0.3358095 0.10618612 -0.28257373 -0.38970378 -0.55556977 -0.1815393 -0.40654135 0.47533637
0.29268166 -0.6585007 0.1764125 0.076005235 -0.31137046 -0.53341234 0.07877152 0.09216006
0.22226766 -0.042369727 0.15607266 -0.03151047 -0.4014254 0.06907266 -0.001570263 -1.0147142
-0.47490308 0.22697748 0.06572934 0.26021326 0.3895509 -0.7963194 -1.0747293 0.26734838
-0.78706586 0.47513083 -0.47597244 -0.29548594 -0.5306971 -1.5545126 -1.0438356 -0.7584067
0.15812886 -0.30322087 -0.5133382 0.43757308 -0.91319686 -0.16930376 0.23260173 -0.68603617
-0.19658546 -0.02149 0.7026489 0.15875323 -0.26636365 -0.77321976 -0.12515353 -0.059286863
0.33426115 -0.30576852 -0.6217224 -0.79730004 -0.38670367 -0.5214076 -0.11974701 -0.79098284
0.21021502 -0.16190615 0.16587776 0.18406464 -0.09771516 -0.35166866 1.2518904 -0.16470002
-0.5630321 -0.3215907 -0.03393023 -0.43830112 0.90605664 -0.09387582 0.2212801 -0.85765344
-0.09640896 0.5854598 -0.4391855 -0.21674693 0.0035072872 -0.5330297 -0.06420127 -0.06651314
-0.49314767 0.50732857 0.27758077 -0.026678406 -0.3259821 -0.31309655 -0.34812808 0.26636374
-0.22533192 -0.8747797 -0.91792977 -0.2146853 -0.39335272 -0.0031634292 -0.33952045 0.6046052
-0.32844347 -0.21908869 -0.585711 0.033931397 -0.47589713 0.61042553 -0.11404207 -0.21209994
0.26999488 -0.59586996 -0.43576717 -0.24348207 -0.9000531 0.2796604 -0.17148222 0.2942371

network.2.1.running_var f4 [128]
00000000: 8004 c23e 070b 1d3e 5aa5 223e c25a 863e
00000010: 5918 033e 256f 463e cabf 3f3e 807b 813e
00000020: de36 473e 56d6 e93d f910 bf3e 7dc0 153e
00000030: c837 553e 50e1 6c3e e4ba 873e 9aed ad3e
00000040: e16c 1b3e db2c 843e 36b0 fd3d d5ee 743e
00000050: 9b87 5e3e dcb9 273e 701d 113e 60ac 1c3e
00000060: c7b7 b23e dd32 3e3e c2c2 103e 4b4f 203e
00000070: 0db5 593e e934 1e3e 0d03 943e 83fb 003f
00000080: 0d1a 9e3e 1280 0f3e 91a8 183e 1204 733e
00000090: 721f 5b3e 5cb1 7f3e 6c2d a73e 1549 483e
000000a0: 3948 b43e 84b3 7c3e 05b2 813e 8b68 cf3d
000000b0: 9d31 323e 47a4 093f d9b9 0b3f fdee 773e
000000c0: c4d6 8f3e f6ae f53d c070 2c3e 410c e73e
000000d0: 5ef0 d53e 5d08 f33d f112 213e c3ee 823e
000000e0: e399 e83d b260 c93e 680d 953e cc25 f23d
000000f0: 55b4 4a3e d3f2 083f 124c 3f3e 8d20 1b3e
00000100: 0615 3b3e f3c2 263e 012c 7f3e aebd ae3e
00000110: ca85 ec3d 40e7 293e a280 133e 89be 8b3e
00000120: 64aa 263e 7494 1b3e e3d2 0c3e c537 003e
00000130: b1e9 323e e0d5 5a3e c980 0c3f e2ab 303e
00000140: 76e8 9b3e d052 393e 4b64 903e 97ea a13e
00000150: c2e7 9e3e 129a 333e 99c4 153e d649 8f3e
00000160: 0b12 183e 23e3 1c3e bda9 873e dd42 a93e
00000170: ae89 1f3e 6cf3 983e ae13 3f3e 8ff3 4a3e
00000180: 7deb 083f 049d 303e fa9c 223e a017 3b3e
00000190: fcac ed3d 8da5 0b3e ba74 4c3e e736 8c3e
000001a0: 848d 2a3e 5742 743e 6629 9a3e 8591 573e
000001b0: c0a3 953e 5af9 9e3d 1adf a23e 3adf 913e
000001c0: 1ae5 a03e 06da d03e 8fa1 483e 1387 b73e
000001d0: f5d6 9c3e 5823 5d3e bf0e 193e 7ea4 853e
000001e0: b858 2c3e 2edb df3d deb8 613e 2ac7 b53e
000001f0: 746e bc3e d668 213e 1559 623e 2b05 d83d
0.37894058 0.15336238 0.15883389 0.26241118 0.12802257 0.19378336 0.18725505 0.25289536
0.19454524 0.114178345 0.37317637 0.1462421 0.2082206 0.23132825 0.26509774 0.33970338
0.15178253 0.25815472 0.12387125 0.23919232 0.21731417 0.16379493 0.14171386 0.15300131
0.34905836 0.1857409 0.14136794 0.15655248 0.21260472 0.15449871 0.28908578 0.50383776
0.3087925 0.14013699 0.14908053 0.23732021 0.21398714 0.24970001 0.32651842 0.19559129
0.35211352 0.24677855 0.2533113 0.10127362 0.17401738 0.5376629 0.54580456 0.2421226
0.2809354 0.11996262 0.16839886 0.45126536 0.41784948 0.118668295 0.15729882 0.25572786
0.113574766 0.39331585 0.2911179 0.118236154 0.19795354 0.5349552 0.18681362 0.15149136
0.18269739 0.16285305 0.2491913 0.3412909 0.11548956 0.16592121 0.14404538 0.27293804
0.16275936 0.15193349 0.13752322 0.12521274 0.17471959 0.2137065 0.5488401 0.17253068
0.3045079 0.18097997 0.28201517 0.3162429 0.31036192 0.17539242 0.14625777 0.2798602
0.14850633 0.15321021 0.26496688 0.33058825 0.15579864 0.29873216 0.18659851 0.19819473
0.53484327 0.17247397 0.15880194 0.18270731 0.1160526 0.13637371 0.19966403 0.27385637
0.16655546 0.23853432 0.3010971 0.21051605 0.29226494 0.07762404 0.31810838 0.2849062
0.3142479 0.4079134 0.1959288 0.3584524 0.3063275 0.21595514 0.14947031 0.2610206
0.16830719 0.10930477 0.22043177 0.35503513 0.3680302 0.15762648 0.22104295 0.10547861
