Project - Train a Deep Learning Model from Scratch/intel_image-resnet9.pth (torch, 386592 bytes, 20 tensors)

network.0.0.weight f4 [32, 3, 3, 3]
00000000: 099f 763e f6e8 ddbd 9b75 e1bd 60ff 9dbc
00000010: b18b 23be bdf1 2b3e a041 28be 6383 c13d
00000020: 4831 ce3c 7bf6 b0bd 9cfb 14bd d57c 723d
00000030: 40d5 113e 9329 16be 1951 903d 61de 57be
00000040: 486e 473e 5abf 693d 3049 633e 5f1e 953d
00000050: d1e1 f6bd 9c57 e63c b945 bebd 8d62 cfbc
00000060: 021b d4bd 08fe f5bc 0d7b 86bd 096a 7fbd
00000070: 5762 16be 8e19 0d3e c447 4a3e bfcf 19bd
00000080: 26a0 8b3d cb7c 1bbe 759e eb3c 960e cb3d
00000090: 8774 833d 581d 32be acff 3b3c 2e62 f83d
000000a0: 944f eb3d 0f50 e03b 295e ce3b bcb6 bbbd
000000b0: 44d5 13be 856e 1ebd e09d 4bbe eb9d 02be
000000c0: c32e 2ebe 1f51 efbd 2e67 2dbe a154 3d3d
000000d0: 7ce4 f1bd 34b0 dcbd 3655 f83d 90f0 b43d
000000e0: 8ccc 71bd 6b93 1f3e ffbc 30bd c814 bd3d
000000f0: 5a9b 64bc 33d3 2c3d 531a b4bd b619 013e
00000100: 37e6 98bd d21e 753d 8b3a 16be 38f0 32be
00000110: e64f a8bd 8e80 ce3d b7f3 d33d 84b6 ecbd
00000120: b59b 073e da83 2b3d e013 c3bd ba99 003d
00000130: 1547 353e c6b4 043e 8e7d f93d fd96 42be
00000140: f7b7 003e d996 ae3d 6905 8cbd ce0c 8dbd
00000150: 531d 153e bb15 3abe 9e36 b1bd ae41 d5bd
00000160: 3c97 7cbd 87dd 4e3d 7219 213e 00e5 57be
00000170: 0e1c 35be 2f9e 1d3e 72b7 8cbd 68bb d73d
00000180: 35e5 023e bd5f 87bd 366a d13d 9bbb f63d
00000190: 90ee 803d 0886 b5bc b59b 513e b1a1 f93d
000001a0: 8b57 19be c195 b4bd 5710 ffbd f0f0 85bd
000001b0: dd62 99bd 1ab4 ce3d 68ca c5bc 5fb6 973d
000001c0: 51df 0d3e aac2 39be e357 d63d 8950 243d
000001d0: 005c 86bd 450f 12be e780 6b3e 492f 95bd
000001e0: 2785 f1bd 0d7e 42bc d567 6c3d 975e 5e3d
000001f0: 60ef 973c 986e cbbd c81b 403a 4b46 5b3e
00000200: 1ff1 c5bd 4050 c7bd 5814 0f3b 4027 86bd
00000210: ea03 b6bd 3957 bc3c feb0 0b3d f022 11bc
00000220: 8b1c ef3d 2fe6 023e 0e14 e3bc aede 51bc
00000230: 35d5 bcbd 256a 3bbe 7c99 ebbc c7de 943d
00000240: 2b94 ab3c d5d0 063e 9508 f03c 3e01 24bd
00000250: 1dbf 17bc b6fa 07be a09b 8c3d 50ce 58bd
00000260: a780 d33c 7d39 213e 04aa 4a3e 8390 7d3b
00000270: ef93 613d 5c4e 403e 0e03 f13d f300 c3bd
00000280: ff63 e2bd 1399 8fbd 5e4e 43be 5c04 0fbe
00000290: 22c2 e6bc 04e7 c0bd 6544 053e 3591 c7bd
000002a0: 676f 323d 209e b2bc 8ff8 16be 813a 923d
000002b0: 2cea b53c be6b b4bd a5dd 83bd 5404 87bb
000002c0: 8f37 143e 40c3 a93d 2863 3c3e b0a8 a3bc
000002d0: 0ec9 0d3e e0e2 5e3d adb7 903d 0a35 3dbd
000002e0: 35a4 823d 3863 1fbd 4131 70bd 138b 7c3b
000002f0: b2c2 353e 9f04 c13d 5d38 ffbc 259d 603d
00000300: 53d2 cfbd 42ab 0bbd 427b e33d e42c 2dbc
00000310: e132 c7bc bd94 11be 2818 d63c d513 92bd
00000320: 459f ebbb 107a b63d 361e 2b3e b335 053d
00000330: 7f58 46be b4a9 1f3e 1457 ea3d 4d46 903c
00000340: 6d04 7f3d 7914 e33d b95e 96bd 4b07 1d3c
00000350: 5610 b23d 0fa1 a4bd 3d4e 86bc 43c4 1f3e
00000360: 5e41 d9bd 60dc 11be 6b79 093e a12b 1c3d
00000370: d834 d5bd e7df 093d bb6d 52be 29f0 89bd
00000380: 2938 82bd f37c ec3d d1bb 3f3e 3847 efbb
00000390: 537b 4dbe 1732 443d dc23 47bc 5592 48be
000003a0: 0ffa b03d 40c2 1dbd fbe4 e93d 296f 5b3e
000003b0: 43ae 9ebc b769 603c 409c 89bd ab69 c23d
000003c0: d2f0 f7bd c22c 1f3b 916f f73c e1ae ddbd
000003d0: d689 553e 2778 0fbe e357 383d 932b 95bd
000003e0: 3159 e13b b44d e8bd 2c84 37be 2ac5 aabd
000003f0: 1c8c 07be fb2f ecbb f137 5c3e cd62 91bd
0.24084105 -0.108354494 -0.110087596 -0.019286811 -0.15971257 0.16791435 -0.16431284 0.09448888
0.025169984 -0.086407624 -0.036372766 0.05920108 0.14241505 -0.14664297 0.07046718 -0.21080925
0.19475663 0.057067253 0.22195888 0.072811835 -0.1205479 0.028117947 -0.09290642 -0.025315547
-0.10356714 -0.030028358 -0.06566439 -0.062356982 -0.14685951 0.1377928 0.19753939 -0.037551638
0.06817655 -0.15184323 0.028762082 0.099148914 0.0641871 -0.17394006 0.011474531 0.12128101
0.11489788 0.006845481 0.006297846 -0.09165713 -0.14436823 -0.03867962 -0.19884443 -0.12755553
-0.17010026 -0.116853945 -0.16933891 0.046223287 -0.11811158 -0.107757956 0.12125628 0.08834946
-0.05903296 0.15583579 -0.04314899 0.09232479 -0.013953054 0.042193603 -0.087940834 0.12607464
-0.07465785 0.059843846 -0.1467077 -0.17474449 -0.082183644 0.100831136 0.10349219 -0.115582496
0.13242991 0.04187379 -0.09525275 0.031396605 0.17702897 0.12959585 0.12182151 -0.1900291
0.12570177 0.08524866 -0.068369694 -0.06887208 0.14561968 -0.18172352 -0.086529955 -0.10412918
-0.061667666 0.050504234 0.15732363 -0.2108345 -0.17686483 0.15392374 -0.06870927 0.10533792
0.12782748 -0.066100575 0.10225336 0.12047502 0.06295502 -0.022158638 0.20469554 0.12189043
-0.14974801 -0.08817626 -0.124542885 -0.06540096 -0.0748956 0.100929454 -0.024144366 0.074078314
0.1385472 -0.18140665 0.10465982 0.040115867 -0.06560516 -0.14263637 0.22998391 -0.072844096
-0.11792975 -0.011870873 0.05771621 0.054289427 0.01854676 -0.099332035 0.00073283585 0.21413533
-0.09665131 -0.09732103 0.0021832194 -0.06550455 -0.08887465 0.02299081 0.03410434 -0.008858427
0.11675366 0.1278312 -0.027719524 -0.012809439 -0.092203535 -0.1830221 -0.02875971 0.07269054
0.020944675 0.131656 0.029300967 -0.040040247 -0.009261874 -0.13279232 0.068656206 -0.05293113
0.025818182 0.15744586 0.19791418 0.0038690872 0.05507272 0.18779892 0.11768161 -0.095216654
-0.11054229 -0.070116185 -0.19072863 -0.13966507 -0.028168742 -0.09419063 0.13014372 -0.09744493
0.043563273 -0.021803916 -0.14743255 0.07140065 0.022206388 -0.08809613 -0.0643876 -0.004120389
0.14474319 0.08289194 0.183972 -0.019977897 0.13846228 0.054415584 0.070662834 -0.04619316
0.06378976 -0.03891298 -0.058640722 0.0038535043 0.17750052 0.094247095 -0.031154806 0.054837365
-0.10147538 -0.03409887 0.11107494 -0.010569785 -0.024316253 -0.14216895 0.026134565 -0.07132689
-0.0071906173 0.0891 0.16710743 0.032521915 -0.19369696 0.1559208 0.1144239 0.017611647
0.06226008 0.11087889 -0.07342286 0.009584258 0.08694522 -0.08038532 -0.016394729 0.15602212
-0.10608171 -0.14244223 0.13425224 0.038127545 -0.1041047 0.033660796 -0.20549671 -0.0673526
-0.06358368 0.1154727 0.1872399 -0.007302191 -0.20066576 0.047899332 -0.012154546 -0.19587071
0.08641445 -0.03851533 0.11420628 0.21429123 -0.019370204 0.013697079 -0.067192554 0.09492811
-0.1210648 0.0024288152 0.030204566 -0.10824371 0.20853361 -0.14010678 0.04500569 -0.07283702
0.0068770875 -0.11342946 -0.17921513 -0.08338387 -0.13237041 -0.007207868 0.21505715 -0.07098923

network.0.0.bias f4 [32]
00000000: 1715 403d bf7f f2bd 72bc 9fbd 0705 163d
00000010: 5c7c c93d a35e 40bd b47b 5b3d 78b3 f4bd
00000020: e5be 383e f250 983d 0b51 12be e288 1d3d
00000030: 3f75 95bc 35de 16be 5739 70bd ac53 e6bd
00000040: 9d6c 2c3e 3ad6 50bd 497b 81bc 9f05 3fbe
00000050: 8623 1abe bd98 103e b99d 103e 7ebe bc3d
00000060: df42 fcbd d350 35be 1223 b23d bec0 663d
00000070: a938 153e cc92 c1bc f1eb 0d3e fb95 a5bd
0.046895113 -0.11840772 -0.07799615 0.03662589 0.09838173 -0.046965253 0.05358477 -0.119482934
0.1804157 0.07437314 -0.14288728 0.03846062 -0.018244384 -0.14733203 -0.058648434 -0.11246428
0.16838308 -0.050985552 -0.015805857 -0.18654488 -0.15052614 0.14120765 0.14122666 0.09216021
-0.12317442 -0.17706613 0.086980954 0.056336157 0.14572395 -0.023629569 0.13859536 -0.08085247

network.0.1.weight f4 [32]
00000000: 8de1 7b3f 1aa6 7d3f 170c 7c3f f1ba 823f
00000010: c373 833f c428 7d3f aec4 7f3f c1a9 7c3f
00000020: 7636 7f3f b26b 7d3f f84f 813f e202 823f
00000030: 0fb2 813f 444f 7a3f 2849 813f d25b 7b3f
00000040: 8ed5 833f 7322 833f 8505 813f 09b2 803f
00000050: 43d0 7a3f 6192 7f3f 3ba7 7a3f c53a 7d3f
00000060: fbbb 813f 7f99 813f 5e03 7d3f 6487 7c3f
00000070: a998 823f 3901 7c3f aadb 7e3f 3821 7d3f
0.9839104 0.99081576 0.9845595 1.02133 1.0269703 0.9889033 0.99909484 0.98696524
0.99692476 0.98992455 1.010253 1.015713 1.0132464 0.977772 1.010045 0.9818698
1.0299547 1.0244888 1.007981 1.0054332 0.9797403 0.9983273 0.97911423 0.989178
1.0135492 1.0124968 0.9883326 0.9864409 1.0202838 0.98439366 0.9955393 0.9887881

network.0.1.bias f4 [32]
00000000: 4981 13bd 3287 c3bc 8597 70bc cde5 8f3d
00000010: a786 c03d 1f8f abbc 9030 0f3c faf0 94bc
00000020: a053 da3c 8d6e dd3c 7f45 db3c 4bd2 8fba
00000030: 2a08 f53c 2446 003d 6b2d 133c aa9d 223d
00000040: 3db0 413d 9dac 913d 40b2 f93c f689 a2ba
00000050: bcdf f0ba eddf a23c cc49 bcba 8647 2bbc
00000060: fbd7 853c 0491 603d 3a78 13bc b792 1abc
00000070: 8458 e93c ee65 c2bb b3c3 0f3c ed6a 8dbc
-0.036011968 -0.023868177 -0.014684563 0.07026253 0.09400683 -0.020942269 0.008739606 -0.018181313
0.026651204 0.027030254 0.026766537 -0.0010972706 0.02991112 0.03131689 0.008982996 0.03970114
0.047287215 0.071130015 0.030480504 -0.0012400735 -0.0018377225 0.019882167 -0.0014365255 -0.010454064
0.01633834 0.054825798 -0.009000832 -0.009434394 0.02848459 -0.005932561 0.008774686 -0.0172629

network.0.1.running_mean f4 [32]
00000000: b8d8 4f3d a0b7 e3bd 4014 a1bd 1c5e 1c3d
00000010: cf4a ca3d 944a 2bbd 4ad6 413d 4a84 f5bd
00000020: f36a 3d3e 484d 9a3d fb6c 14be 3875 343d
00000030: dd3e 70bc 4b34 13be f387 88bd 11ba dfbd
00000040: 47c7 2a3e 6864 78bd cea7 a3bc 050d 3fbe
00000050: f6ae 17be 9732 0f3e 5d2a 123e 0e31 bb3d
00000060: a57f 02be 4e0b 37be 0062 b43d bf9a 843d
00000070: 860c 1e3e abe6 d3bc 8850 0a3e d587 a4bd
0.05074379 -0.11119008 -0.078651905 0.038175687 0.0987755 -0.04181917 0.047323503 -0.11988123
0.18497829 0.075342715 -0.14494698 0.0440571 -0.014663425 -0.14375417 -0.06666555 -0.10924161
0.16677581 -0.06064263 -0.019977476 -0.1865731 -0.14812836 0.13984142 0.14273973 0.09140216
-0.12744005 -0.17875406 0.088077545 0.06474828 0.15434465 -0.025866827 0.13507283 -0.080337204

network.0.1.running_var f4 [32]
00000000: b472 013d 906c 573f baf2 833e 171f b93d
00000010: f2c4 003d 5fe3 793e b27b e73d 4e43 773e
00000020: ec1f 243e b3f0 313e 4d2c 903d 9a05 2c3e
00000030: 9878 193e 5f8e 013e ce8a 573d b6a6 883d
00000040: 9255 663d eb52 b93d 8eeb 273e 573f 583e
00000050: c4b2 5b3e 6559 773d 7d52 753d e5f4 873e
00000060: 2256 233d 68e8 773d e01e a83e 9929 343f
00000070: 79ab 893d c047 4f3e bfc9 113f 405c f03e
0.03160353 0.8415003 0.25771123 0.09039133 0.03143782 0.24403141 0.1130289 0.24146768
0.16027802 0.17376976 0.070397 0.16799012 0.14987409 0.12651967 0.05262261 0.066724226
0.05623395 0.090490185 0.1639845 0.21117912 0.21454912 0.060387988 0.05989312 0.26554027
0.039877065 0.060524374 0.32836056 0.70375973 0.06722159 0.20242214 0.56948465 0.4694538

network.1.0.weight f4 [64, 32, 3, 3]
00000000: 9b22 25bd b7b0 45bd 9307 68bd 51e6 77bd
00000010: 9b81 d43c c505 07bc 841a 90bc b3cc 0dbd
00000020: 6fb4 723c ebb0 033d 404c 50bd 295d 353c
00000030: 5f37 803c 20ac 883c a679 3dbd bedf 3a3d
00000040: 5f94 df3c 5ac5 ce3b f940 693b 8134 4fbd
00000050: a6d3 11bd 7b91 473d 8394 32bd a13f a6bc
00000060: d906 8c3b 5388 7b3d 8fd4 46bd b98f 353d
00000070: ef0b 3c3c 6316 513c 0257 bcbc b2d8 e1bc
00000080: 46eb febc dd87 653d 1ecc 43bc 1806 4fbd
00000090: 3614 0c3d 080d 873c 9ffc c8ba 6208 4abd
000000a0: c169 dcbc 2f43 4b3d 65c9 a5bc 373a eebc
000000b0: 4c2d 04bd e9b2 51bb 60c9 443d b089 0bbd
000000c0: 9d5e 563d 451f 603d 2fe2 183d 2f25 0fbd
000000d0: a38b 2abd 7835 16bd 8991 323d 84a9 bcbc
000000e0: 219a 183d 28f0 623d 9e2d f8bc e571 c23c
000000f0: 1787 6f3d 6c41 1a3d 6461 953c 3ff4 0cbd
00000100: dc7a 2ebd eeb6 3cbd 4ece 413d 2bc7 46bc
00000110: 188a 2bbd 87b2 f6bc 55cb 443d 33f5 053d
00000120: 2e04 b73c c5dd af3c bc23 31bc 5b13 f9bc
00000130: 29b0 f6bc 0298 3b3d 75e1 f6bb ad68 133d
00000140: d893 c53c bff9 6e3b 9f50 a2bc 477e 13bd
00000150: 2e93 4e3d aef8 40bc f0a3 313d 9456 823d
00000160: 07e1 0e3d 3df7 00bd e9bc 7a3c 4b28 12bc
00000170: 677e a13c 00e3 afba cd05 13bd c1d3 c03c
00000180: ee01 8fbb 1d74 05bc 04d0 47bd b838 113c
00000190: 1174 ce3a cf51 563d 7770 543d 0718 9b3c
000001a0: 02cb 0b3d c458 eebc 68f8 5e3d f77a 2abd
000001b0: 277c d5bc 94a4 9dba cc99 363d ac1f 113d
000001c0: 1a89 2fbd 8b0b 393d 4b25 93bc 0ac8 ecbc
000001d0: ba86 013d f05e 1dbd dcca 0fbb 2146 69bc
000001e0: f18e 5e3d 611f f13b c388 ab3c df4b 19bd
000001f0: 7db9 2ebd 6ad0 1fbd d3a5 32bd 3cd5 833b
00000200: 22e7 12bd be37 2f3d 70e5 72bd 50fd 423d
00000210: 0209 68bb 9864 5a3d 36c5 3b3d 7d88 fc3c
00000220: cde8 73bd 6964 61bd f509 6dbc 6845 55bd
00000230: 186e db3c ac48 173c c5b7 5a3c 6e0c e43c
00000240: 0e7c 283d b204 babc 7c41 52bd 72b2 d13c
00000250: 8b4a d13c 9dfd bfbc 0812 27bd 2400 79bd
00000260: 1df6 0fbd dd8d 5abc 040e 163d 4c84 cdbc
00000270: c067 643d 1fc3 223d 59ec b7bc d335 353a
00000280: a270 5f3c a0b5 2f3c 0b2d 28bd 6af3 333c
00000290: 6e7e edbc 7fce 12bd f60a 333c 24ad 73bc
000002a0: ca4e 553d 2b96 e3bc 3c30 e9bc dc2f d93c
000002b0: f509 47bb 64a4 7dbd 61fc 57bd cc14 19bd
000002c0: ec20 0abd 52d4 033d fd66 c43c f16f 263b
000002d0: 0b38 3b3d e1e5 eebc 48f3 3dbd ae02 7a3d
000002e0: 75e4 d93c c7bb 8a3b 949e d9bc 2fe2 a9bc
000002f0: e0c2 603d 7188 ca3c abbe 003c 3537 70bc
00000300: 85be e2bc f956 4a3d f1d7 bb3b 37b3 783d
00000310: fec9 55bc 22f5 48bd 20ec b23c 7cd7 91bc
00000320: 0cff b3ba d10b 52bd aa30 55bd e4ee f5bc
00000330: 2ac5 0cbd 2e19 093c 00db 77bc 3402 77bc
00000340: 94fc e4bc 7f3c 433d e905 47bc 30b3 823d
00000350: 2105 46bc cd77 0d3d 89fe 683d 2940 ec3c
00000360: 2956 b9bc f3ce cf3c dda6 863d 37d7 783c
00000370: 87d7 173d 359e cf3b ad2c 13bd df9f cabc
00000380: bd65 863d b5d6 af3c 441d f63c 10ca bf3c
00000390: 0d5e 00bd 70f8 ecbc 3ba2 9a3c eceb 033d
000003a0: 28ad 8b3c b5e9 ddbc 31da 803c 21cd 07bc
000003b0: 68f7 b53c 2255 d63b 56ab b83c 4c7c 32bd
000003c0: 4058 6cba fa01 323c 12f8 3ebd 334d 3ebb
000003d0: a5de 483c f3ac 56bd 5490 54bd 137c 99bc
000003e0: 469f 8cbc d993 04bd c5fa c3bc d5da 6abc
000003f0: 7b9a 51bd 698a 233d e159 be3c ecc2 1b3d
-0.040316205 -0.04826423 -0.05664785 -0.06052238 0.025940707 -0.008241122 -0.017590769 -0.034619045
0.0148135265 0.032151144 -0.050853968 0.011069574 0.015651403 0.016683638 -0.04625859 0.045623533
0.027292429 0.0063101472 0.0035591705 -0.05058718 -0.035602234 0.048722725 -0.043598663 -0.020294013
0.0042732772 0.061409306 -0.048542555 0.044326518 0.011477455 0.012761685 -0.022990707 -0.027569149
-0.031118046 0.056037772 -0.011950521 -0.05054292 0.034198962 0.016485706 -0.0015334076 -0.0493244
-0.026905896 0.04962462 -0.020237634 -0.029080493 -0.03226976 -0.0031997508 0.04804361 -0.034066856
0.052336324 0.05471732 0.03732508 -0.03494757 -0.041637074 -0.036672086 0.043595824 -0.02303005
0.037256364 0.055404812 -0.03029519 0.02373595 0.05847844 0.037660047 0.018234916 -0.03441262
-0.042597637 -0.046072893 0.047315888 -0.012132446 -0.041879743 -0.030114425 0.048045475 0.032704543
0.02234086 0.021468053 -0.010811742 -0.030404737 -0.030113297 0.045799263 -0.007534201 0.0359885
0.024118349 0.0036464778 -0.019813834 -0.0360091 0.05043333 -0.01177804 0.043369234 0.0636417
0.03488257 -0.031485785 0.015303829 -0.008920739 0.019713594 -0.0013419092 -0.035894204 0.023538472
-0.0043642437 -0.008145359 -0.048782364 0.00886362 0.0015751143 0.052324113 0.051865067 0.018932356
0.03412915 -0.029095061 0.054436117 -0.041621175 -0.026060177 -0.0012027198 0.044580266 0.035430595
-0.04285536 0.045177024 -0.017962119 -0.02890398 0.031622626 -0.038420618 -0.0021940982 -0.014237911
0.05433554 0.007358477 0.020939237 -0.037425872 -0.042657364 -0.03901712 -0.043615174 0.0040232223
-0.035864957 0.04277777 -0.05930084 0.04760486 -0.003540576 0.05331859 0.045842372 0.030826801
-0.059548188 -0.0550274 -0.014467706 -0.052068144 0.026785895 0.009233635 0.013349478 0.027837958
0.041133933 -0.022707317 -0.051331982 0.025597785 0.02554824 -0.023436362 -0.04078868 -0.06079115
-0.03514682 -0.013339487 0.03663446 -0.025087498 0.055763006 0.039736863 -0.022451567 0.00069126225
0.013637694 0.010724455 -0.04105858 0.010983327 -0.02899095 -0.03584146 0.010927906 -0.014872823
0.052077092 -0.027781567 -0.028465383 0.026512079 -0.0030370925 -0.061924353 -0.05273092 -0.03737335
-0.033722803 0.032184906 0.02397489 0.0025396312 0.045707744 -0.02916235 -0.04637459 0.06103771
0.026598195 0.0042338106 -0.026564874 -0.020737736 0.054873347 0.024723263 0.007857959 -0.0146616
-0.027678737 0.04939935 0.0057325293 0.060717788 -0.013048647 -0.049061902 0.021841109 -0.017802946
-0.0013732626 -0.0512808 -0.052048363 -0.030021138 -0.034367718 0.00836782 -0.015127897 -0.015076209
-0.02795247 0.047665115 -0.012147405 0.063818336 -0.012086184 0.03453808 0.05688337 0.028839188
-0.022624092 0.025367236 0.065747954 0.01518803 0.037070777 0.0063359984 -0.035931278 -0.024734436
0.06562374 0.021464685 0.030043252 0.02341178 -0.031339694 -0.028927058 0.018876186 0.032207415
0.01705034 -0.02708898 0.015729042 -0.008288653 0.022212699 0.0065409103 0.022542637 -0.04357557
-0.0009015836 0.010864729 -0.046623297 -0.0029037714 0.012260114 -0.05241103 -0.051895455 -0.018735921
-0.017165791 -0.03236756 -0.023923287 -0.0143344 -0.051172715 0.03992692 0.023236217 0.03802769

network.1.0.bias f4 [64]
00000000: 3365 babc 4611 8fbc 94bd 923c ec35 6b3d
00000010: 697a 1bbc 3a18 8b3b 927d 9e3c 3c3a 15bd
00000020: cb25 31bc 9e98 6fbd 873b 303d efd8 113c
00000030: 1224 6cbd ca64 bd3c 7e00 83bc c63a 0abd
00000040: 9136 5a3d db58 253d a6b9 e13c 58ec 2d3a
00000050: bd40 c93b 2a8b fb3c 8686 923c d95b 56bd
00000060: 1b3c 573c 8e8f e13c ddf4 1a3d f25b 14bd
00000070: e835 b8bc b7b0 de3c 7157 053d dde1 123d
00000080: 130c 013d 607b c13a c4bc 57bd ef53 42bb
00000090: 444e 933c 1fe1 66bd beac 89bc 6df0 6b3d
000000a0: 6734 54bc cf90 ea3c 19cc bfbc a905 f4bc
000000b0: b7c6 573c 936a 183d 991b 7a3c 79a0 543d
000000c0: 0736 383d 7987 483d 6be0 2bbd 0727 3f3d
000000d0: fc83 11bd 17bc 22bd a14a c7bc 221b 53bd
000000e0: fd9a c2bb 3128 5f3c 6619 053d 8cc0 64bd
000000f0: 6acf 15bd 992a 233b 8898 1ebc e20c 3c3c
-0.022753334 -0.017464291 0.017912664 0.05742447 -0.009489634 0.0042448314 0.019346986 -0.03643249
-0.010812233 -0.058495156 0.04302552 0.008901819 -0.057651587 0.023119349 -0.015991446 -0.033747457
0.053274695 0.040367942 0.027554344 0.0006634644 0.0061417506 0.030706007 0.017886411 -0.052333687
0.013136889 0.027534273 0.037831176 -0.0362205 -0.022486642 0.027183874 0.032554094 0.03585993
0.031505655 0.00147615 -0.052670255 -0.002965208 0.017981656 -0.056367036 -0.016806003 0.057602335
-0.012951947 0.028633503 -0.023412751 -0.029787855 0.013169936 0.037211012 0.015265369 0.05191085
0.0449734 0.04895732 -0.04196207 0.04666808 -0.03552626 -0.039730158 -0.024327578 -0.051539548
-0.005938886 0.013620422 0.032494925 -0.05584769 -0.03657476 0.0024897216 -0.009679921 0.011477681

network.1.1.weight f4 [64]
00000000: d537 803f 3120 813f 2868 813f 6a85 7c3f
00000010: da39 7e3f c117 7d3f 5d64 7e3f 5e54 803f
00000020: 19fc 7d3f 06a2 7d3f fb08 7e3f 0d82 7e3f
00000030: b6bb 7d3f 2319 7b3f 7b05 803f d68a 7e3f
00000040: c8c1 7f3f 4c22 7f3f 3d87 803f 7a0c 803f
00000050: 4423 833f 633e 7f3f 3022 803f eac2 7d3f
00000060: d54a 7e3f 9b11 803f 59fb 813f 2edc 823f
00000070: b7c0 7d3f 0939 7c3f 79de 7f3f ce49 7b3f
00000080: 3b5f 803f 8095 7e3f f99e 7f3f 3f63 7d3f
00000090: 492b 803f d4c5 833f 1fc5 7e3f 16e8 7f3f
000000a0: 9b48 813f 833c 7f3f da9f 7d3f 62c8 803f
000000b0: 1303 823f b49d 7d3f a6e9 803f 88cc 823f
000000c0: 1941 7e3f 7cab 7f3f 0833 803f e64a 7f3f
000000d0: 036d 823f a710 7f3f be1e 7c3f 6b63 813f
000000e0: ca5c 823f ca42 803f a27a 7e3f 44a2 803f
000000f0: b747 7f3f 060e 7d3f 1c03 803f 4b0e 823f
1.0017039 1.0087949 1.0109911 0.98641074 0.99307024 0.9886437 0.9937189 1.0025747
0.99212795 0.99075353 0.99232453 0.9941719 0.9911455 0.9808523 1.0001673 0.99430597
0.9990506 0.9966171 1.0041271 1.0003808 1.0245137 0.9970457 1.0010433 0.9912554
0.99332935 1.0005373 1.015483 1.0223444 0.99122185 0.9852453 0.9994884 0.9815949
1.0029062 0.9944687 0.9985195 0.9897956 1.001321 1.0294747 0.9951953 0.9996351
1.0100282 0.9970171 0.9907204 1.0061152 1.0157188 0.9906876 1.0071304 1.0218668
0.9931808 0.9987104 1.0015574 0.9972366 1.0189518 0.99634784 0.9848441 1.0108465
1.0184567 1.0020382 0.9940587 1.004952 0.99718803 0.98849523 1.0000949 1.0160612

network.1.1.bias f4 [64]
00000000: c92e 063b 35cc eb3b 0855 4cbc ad77 a0bb
00000010: 72db d1ba 78f4 e239 bd52 c63b 3b9d 543a
00000020: cb64 6bba 52c9 76bb 213a 25bc 7995 cf3a
00000030: 18a3 d6b9 cc9c 1fbc b0f1 4ebc d80c 613a
00000040: be92 183c 22b7 46b8 bc6a e0ba 3bf5 f23a
00000050: f79f eebb 42fc 7c3b e0e9 09bb 279a 2fbc
00000060: dfaa 7c3a f01f 3bbc 1a7b 66bb ec3f 8dbc
00000070: eb1d 8dbb 1332 6d39 14b6 8fbb 9d11 2fbb
00000080: 0bf2 263c d0bb b7bb 9746 11bb c11b b3ba
00000090: 7b15 a4bb 5f68 b3bb 2308 b23b d829 33bc
000000a0: 000b 74bc e390 8c3b e4d7 f1bb cde3 6ebc
000000b0: 69fd 693a 2903 77ba b5b6 9ebb 5e7a 543a
000000c0: 5e1c 8ebb 2900 0ebc 8efd a6ba 8e5c 19bc
000000d0: e9f8 88ba e256 1ebb 4f9f d5bb f6dd c83b
000000e0: 99db 1f3c 9ced 513b 82fe 0dbc b4bb b9ba
000000f0: 60ca 9638 1968 22bc 4aab 16bb bcac 36bb
0.0020474663 0.0071959742 -0.012471445 -0.004897079 -0.0016010834 0.00043288223 0.0060523436 0.00081105874
-0.0008979558 -0.0037656617 -0.01008466 0.0015837393 -0.00040938775 -0.009741973 -0.012630865 0.0008584983
0.00931233 -4.7377434e-05 -0.0017121653 0.0018536219 -0.007282253 0.0038602506 -0.0021043941 -0.010717905
0.0009638499 -0.011421189 -0.003516859 -0.017242394 -0.004306545 0.00022620735 -0.004385719 -0.002671338
0.0101895435 -0.005607106 -0.002216732 -0.0013664888 -0.0050074435 -0.0054750885 0.005433099 -0.010935269
-0.014895201 0.004289733 -0.0073804725 -0.014580679 0.00089260057 -0.0009422773 -0.0048435577 0.00081053923
-0.0043368777 -0.00866703 -0.001274036 -0.009360446 -0.0010450158 -0.0024160673 -0.006519235 0.0061299754
0.009756946 0.0032032495 -0.008666636 -0.001417032 7.190253e-05 -0.009912514 -0.002299028 -0.0027873954

network.1.1.running_mean f4 [64]
00000000: d1a1 cdbc f852 43bf 8b5f 853f 4501 febd
00000010: 8c92 3f3e a9fb 043f 4c87 1abe 80ce 3fbf
00000020: 676c a0bd fed2 a9be 67bb f93e 6f7c 92be
00000030: dba9 bfbe 4015 9cbd 88ef 893d 8d6a a7be
00000040: b71d 07bf 817c 87be f21f a43d eb78 6fbf
00000050: 2d6a 43be 2863 fabe 7e43 c4be a0da 9a3d
00000060: efcf a5bd 3703 3cbe af90 98be 3bf6 61be
00000070: e476 ffbd ff7c 69bd a1df e93c baaa cdbe
00000080: 52be 83bf 6f09 9abe 101d bd3b f717 edbe
00000090: 150d 293f a914 08be 3a08 e2bd 0462 033f
000000a0: e330 aa3f 0f72 50bf fbcd c5be b3e2 55bf
000000b0: 0197 b9be 310c 23be cace 9cbe c66c 493f
000000c0: 2ae8 44be c449 18be 0457 c2be fc28 783f
000000d0: 8a09 e3be fedc 1fbf f017 df3d 30ed 19bf
000000e0: c123 f1be 9917 80be b4de 06bd d6a0 7abc
000000f0: a0b5 89be 9859 71be c044 e63e c414 a4be
-0.025101574 -0.76298475 1.0419782 -0.12402586 0.18708247 0.519465 -0.15090674 -0.7492447
-0.07833176 -0.33168787 0.4877579 -0.2861056 -0.37434277 -0.076212406 0.0673514 -0.3269848
-0.52779716 -0.26462176 0.080139056 -0.9354388 -0.19083472 -0.48903775 -0.38332742 0.07561231
-0.08096301 -0.18360601 -0.29797885 -0.22066586 -0.124738485 -0.05700397 0.028549017 -0.40169317
-1.0292456 -0.30085322 0.005771287 -0.46307346 0.66035587 -0.13289131 -0.11036725 0.51321435
1.3296169 -0.8142404 -0.38633713 -0.8354904 -0.3624802 -0.1592262 -0.30626518 0.786816
-0.19229189 -0.1487189 -0.37957013 0.9693754 -0.44343215 -0.6244658 0.108932376 -0.60127544
-0.4709759 -0.25018004 -0.03292723 -0.015297135 -0.2689638 -0.23569334 0.44974327 -0.32047093

network.1.1.running_var f4 [64]
00000000: ecdd c53e 2cdb 743e e275 9c3e f668 073e
00000010: 656b b93e 94d4 403e 954a 703e 5bdc 383e
00000020: ae24 693e bf8e 883e 7dd7 6a3e d0e8 b73e
00000030: 0640 193e 1376 443e 3cf0 9b3e 8915 9e3e
00000040: 3c6c 963e 1780 f43e 80d8 803e 9631 823e
00000050: 5279 7b3e a9c3 993e c8d9 233e e307 b93e
00000060: e8a4 6a3e 9082 1b3e b524 103e 7804 9b3e
00000070: ebe8 ee3e 75c0 863e 1143 5f3e 5482 573e
00000080: 907e 743e 9c2f 5e3e 4f80 263e f168 5c3e
00000090: 8299 823e 7629 063e 34a8 703e 2d51 0b3e
000000a0: f87e ba3e de58 5f3e 7375 ec3e d489 803e
000000b0: 86b0 343e c40e d13e 84cf fe3d 7698 c73e
000000c0: 2537 193e c8ec 933e 1fcc 143e 9e54 5e3e
000000d0: a665 0f3e b3d0 473e ea5b 653e 74d8 823e
000000e0: 5949 ec3d 00c7 c53d 1952 943e 2ffd 5c3e
000000f0: 49b8 a53e 0028 cf3d a275 ad3e 447a 293e
0.38645875 0.23911732 0.30558687 0.13223633 0.36214748 0.18831092 0.23465951 0.18052809
0.22767898 0.26671407 0.22933765 0.3591981 0.14965829 0.19185667 0.30456722 0.30875805
0.2937945 0.47753975 0.25165176 0.25428456 0.24557999 0.3003209 0.16001046 0.3613883
0.22914469 0.15186524 0.14076503 0.30276847 0.46662077 0.26318708 0.21802928 0.2104581
0.23876405 0.21697849 0.16259883 0.21524407 0.25507742 0.13101754 0.23501664 0.13605185
0.36424994 0.21811244 0.46183357 0.25105155 0.17645463 0.40831578 0.12441924 0.38983506
0.14962442 0.28891587 0.14530991 0.21711966 0.1400362 0.19513206 0.22398344 0.25555766
0.115374275 0.09657097 0.28968886 0.21580957 0.3236716 0.10115051 0.3387881 0.16550547

network.2.0.weight f4 [128, 64, 3, 3]
00000000: 25b8 883c 06da ff3c 1f6c 073d 7767 063c
00000010: f948 d33b 2582 f4bc 092c 04bd 065d 9a3c
00000020: e332 a7bb 7505 06bd 28e0 1dbd 8be8 ee3c
00000030: 8a5a 89bc 86f4 0fbd 16bf ddbc da79 0d3c
00000040: a5f8 2f3c ddf8 a0b8 76c8 a9bc 20f0 3cbc
00000050: d243 903c 7629 1bbc ad80 32bd 00a6 00bd
00000060: 683c 36bd 3b10 1cbc 51b7 31bd 7cf3 f6bc
00000070: 8864 293d a1fb ddbc 5073 743b 0754 51bc
00000080: 7e58 553d c8f7 59bc 585d 383d ff1b c13c
00000090: a180 f53b 1b66 363a 860c 613b e445 95bc
000000a0: 6d96 39bc 792e 88bb 3c8f a2bc e14f 763b
000000b0: 3419 a53c 4ed3 2d3d 5471 123d 3e3c a9bc
000000c0: 1834 043d 4e0a e43a 30f4 09bd f2bc fc3c
000000d0: 126f 47bc ef15 d7bb fc4b aa3c f912 343d
000000e0: 7f36 b23c 1f87 353d e148 8abc 1b8f a5bb
000000f0: 778f 723d f225 bb3c ca8b 3a3d c57d 10bd
00000100: ac01 a63c 7a77 57bb d9d5 d63c 17e6 f0bc
00000110: 4347 043d 7e3a cbbc 53b2 883c 4769 13bd
00000120: 147f 8ebc 4c08 99b9 4e50 1b3b ef28 fa3c
00000130: d54d 363c 8024 87bc d55f ef3c 5bc4 083d
00000140: 0150 463b f0eb 963c ddff 5c3c 868a 91bb
00000150: 99a5 afbc 22a2 f73b 0dd4 2b3b d28e 0bbd
00000160: aeeb b23c 6756 d93c 1c56 93bc 34e4 9ebc
00000170: fc9a 37bc 4878 3abd 3700 e4ba 52b4 07bd
00000180: 1c7a f43a 2043 af3b 3a83 113c 7fd4 a43c
00000190: 040b 6c3c 3ceb 9dbc c2ee 5abb 07b8 a43c
000001a0: b4c0 7cbc 74ac c23c e7da 93bc 1ee4 013c
000001b0: 3fe7 333c 2a6a f83c a42f 26bd fe39 28bd
000001c0: 5a77 80bc 27b9 0b3d 6100 eabc d5da 00ba
000001d0: acb9 82b8 67c6 0ebc 4641 cdbc c0b9 b93c
000001e0: a5f2 14bd 5c6c 54bc 1886 023c a11a b83c
000001f0: 8f40 ccbc 5aa5 43bd ce53 f8bc b98e a1bc
00000200: 675e 2fbc ebdd 863b 6186 fcbc 2dfb c2bb
00000210: bb1b dfbb 5a48 03bc e2e9 cebc c123 7fbc
00000220: cfbf b23c 0922 5dbc 02f6 133c 3ca4 fb3b
00000230: 3262 18ba 14d5 ff3c 2798 fd3c bc2a fdbc
00000240: 725c 03bd 684a d73c a63f e93c 029a 1c3d
00000250: e33c ae3b fa51 d03c 0df6 fc3c 1295 7e3c
00000260: 4bbb 503a 4e48 0dbd 87d0 39bd ad5a 3cbd
00000270: 71a0 feb9 ee13 18bd 6922 b3bc bec7 a43b
00000280: bb06 053d f75b 22bd b83c d9bc e12e 363d
00000290: f5eb a03c 43fd 333d 7ef1 7e3c 090b 9a3c
000002a0: 6365 1ebc a4f2 b3ba aea3 af3c 4561 39bc
000002b0: b364 353c 803f 92bc d8e3 d9bc 3364 0cbd
000002c0: 9ee9 e63c 4521 18bc b52c a53b 1376 ce3c
000002d0: cf24 313d 67f3 b93c 084a 513c 9f08 023d
000002e0: 11f1 c1bb 6f8f 853d 900c 493d c91d 1abc
000002f0: 19ff eb3c 32e7 383c 3a81 d13c d50a a5bc
00000300: 2e76 2b3d 2a2c 113d a106 b43c d9af 093c
00000310: edff cabc 3251 cb3c 00be 6fbc 93e9 d93c
00000320: fe0f 9d3c d527 0abd 306d c53b 1abc d13b
00000330: 34c1 38bc e0cd acbb 1807 273c 9f7c f63b
00000340: e594 f6bc 2902 69bc 901e 8ebc 2f59 da3c
00000350: c21c 2fbc 0477 1b3d a367 1cbd ce4d 273d
00000360: 55e4 a43b 9779 cabc 81c5 13bc 5dbb c13a
00000370: f334 4cbd 123f f3bc 1074 b33b 557a c83c
00000380: 7109 3a3c 07b0 77bc 1658 0a3d 3d6a 54bc
00000390: e636 b03c bc70 0a3d f842 8c3c 9904 07bd
000003a0: fc8f 913b 1b17 d63c 485e b0bb 1da0 2cbd
000003b0: 06ac 053d e443 ac3c baa1 193d 3896 aebc
000003c0: 180c 0f3d 48c2 f23c 7902 04bd 6c2f 1c3d
000003d0: e8fc 283d 055d 483d 09ab c53c cf6e 113d
000003e0: 9a4f 9a3b 5430 843d dc69 463d 26b8 053c
000003f0: 6b3a 01bc 8876 09bd e282 2cbc 8586 433c
0.01668937 0.031231891 0.033062097 0.008203379 0.006447908 -0.029847214 -0.032268558 0.018843185
-0.0051025017 -0.032720048 -0.03854385 0.02916362 -0.016766805 -0.035145305 -0.027068656 0.008635009
0.010740434 -7.675749e-05 -0.02072547 -0.01153186 0.017610464 -0.009470334 -0.043579746 -0.03140831
-0.0444912 -0.009525354 -0.043387715 -0.0301454 0.04135564 -0.027097525 0.0037300177 -0.012776381
0.052086346 -0.013303705 0.045010895 0.02357292 0.0074921404 0.0006957964 0.003433974 -0.018221803
-0.011327368 -0.0041559306 -0.01984369 0.0037584233 0.02015362 0.042437844 0.03575261 -0.020658609
0.032276243 0.001739809 -0.03368014 0.030851815 -0.012172477 -0.006563894 0.020788185 0.043963406
0.021754501 0.044318315 -0.016880454 -0.00505246 0.05921885 0.022845242 0.04554347 -0.035276193
0.02026447 -0.003287761 0.026225017 -0.02940659 0.032294523 -0.024808165 0.016686594 -0.035989072
-0.01739458 -0.00029188616 0.0023698988 0.030537097 0.011126955 -0.016496897 0.029220501 0.033390384
0.0030260088 0.01842305 0.013488737 -0.004441562 -0.021441268 0.0075571695 0.0026218921 -0.03407175
0.021840896 0.026530458 -0.017985396 -0.019395925 -0.011206385 -0.045524865 -0.0017395084 -0.03313095
0.0018652114 0.005348578 0.0088813845 0.020120857 0.014406923 -0.019277208 -0.003340647 0.020107282
-0.015426803 0.023763873 -0.018048717 0.0079279225 0.010980426 0.03032406 -0.040572777 -0.04107093
-0.015681911 0.034112122 -0.028564634 -0.0004915421 -6.233467e-05 -0.008714295 -0.025055539 0.02267158
-0.036364216 -0.012965288 0.007966541 0.022473635 -0.024933128 -0.047765113 -0.030313399 -0.019721376
-0.01070366 0.00411581 -0.030825796 -0.0059503526 -0.0068087257 -0.008012855 -0.025258008 -0.015572489
0.021819977 -0.013496884 0.009030821 0.0076794904 -0.0005812972 0.031229533 0.030956341 -0.030904166
-0.032070585 0.026280597 0.028472733 0.03823281 0.005317317 0.025429714 0.030879045 0.015538471
0.0007962479 -0.034492783 -0.045364883 -0.045984913 -0.00048566193 -0.03712838 -0.021866994 0.005028694
0.03247712 -0.039638486 -0.02651821 0.0444783 0.019643763 0.0439427 0.015560506 0.01880409
-0.009667727 -0.0013728929 0.021440353 -0.011314695 0.011071372 -0.017852545 -0.026597902 -0.034275245
0.02818757 -0.009285276 0.00504073 0.025202787 0.043247994 0.022699071 0.012773998 0.031746503
-0.00591863 0.065214984 0.049084246 -0.009406515 0.028808163 0.01128559 0.025574315 -0.020146767
0.04186075 0.03544251 0.021975817 0.008403742 -0.024780238 0.02481899 -0.014632702 0.026600635
0.019172665 -0.033729393 0.006024979 0.0064005973 -0.011276532 -0.0052735656 0.010194562 0.00752218
-0.030100295 -0.014221706 -0.017348558 0.026653854 -0.010688009 0.0379553 -0.038184773 0.040845685
0.005032102 -0.024716182 -0.009019257 0.001478057 -0.049855184 -0.02969316 0.005476482 0.024472395
0.01135479 -0.015117652 0.03377541 -0.012964782 0.021510553 0.033798918 0.017121777 -0.03296337
0.004442213 0.026134064 -0.005382333 -0.042144883 0.032634757 0.021028467 0.03750775 -0.021311864
0.034923643 0.029633656 -0.03222892 0.038131163 0.041256815 0.048916835 0.024129407 0.035506066
0.0047091963 0.0645453 0.0484408 0.00816158 -0.007887463 -0.033560306 -0.010529252 0.011933927

network.2.0.bias f4 [128]
00000000: 6b96 023d eee9 a4bc 0ab3 913a a8df 12bd
00000010: d4a0 ce3c ba21 39bb 79c7 293d 450d 073d
00000020: c548 063d d2a0 b53c 5580 d93c 88f5 afbc
00000030: 6189 143d 7acb 1abd e52a f8bb cb62 123d
00000040: 403e 5a3c c442 0ebc 035a 1f3d d854 8fbb
00000050: 80c0 0dbd 5273 d73c fac5 b33c 98b1 923c
00000060: 1b06 f1bc 5c4b 5e3c 4a8a d3bb 0086 d83b
00000070: d86c b9bc 326a ed3c 2b65 00bd 89ad 213d
00000080: a3ae ddbc 70cf a13c 3ee2 48bb 2366 313a
00000090: 858b 013d 33f7 e3bc 7f61 afb9 74a6 15bd
000000a0: ed46 d4bb e893 8b3c 3550 dbbc dd9a e6bc
000000b0: 3124 f7bc f83b e7bc 1c22 243c 8051 dabb
000000c0: 50b9 3bbc cfbf 4c3c 66d5 3fbc 4242 303b
000000d0: 4c61 51bc 4052 fcbc 24f7 283c 03df 25bb
000000e0: 860f 9cbb 3337 333b 4504 35ba c101 a03b
000000f0: 962a f93c 30fd 59bc 7d55 473c 63eb 8dbc
00000100: 0e95 a73c e095 a6bb 124f d03c b2d4 f33c
00000110: 928d de3c 766d d93b ec7f 0b3c 16fd ea3c
00000120: 95a6 273d ff0e 0b3d 770b 003d 0ff8 473c
00000130: d6fc ff3c 820e 923c 0747 0c3d d13c 143d
00000140: e7f8 1c3d e77f 08bd 8892 94bc 5c9a e43b
00000150: 97a8 7239 0141 183c d828 e63a f2a2 beba
00000160: aaf5 1ebd fd05 1b3d 6a69 dd3c 9bde edbc
00000170: a5b3 263d 1f47 c1bc 2b09 b9bb bd15 093d
00000180: 8e07 633b 1b7a b4bc ac17 1dbc bc81 5e3c
00000190: a6fa d03c f63a 993c 4edd ee3c 0bb8 ddbb
000001a0: 2c4d 21bd fc4a 10bc 93c0 a8bc f0ab 84bc
000001b0: c424 dd3c b420 0abc f52e 2b3c 4a11 d83c
000001c0: 4054 fa3c 4fc3 253d 2c34 0bbd 40e5 593c
000001d0: 3830 9b3b 4700 19bd 91fb d8bb 5906 173d
000001e0: 57cf d9bc d5f9 f2b8 60e5 1d3c a7e7 8c3b
000001f0: 7cfd 683c 874c 6dbc 507c 29bc 4a29 f63c
0.03188173 -0.020131078 0.001111598 -0.035857826 0.025223173 -0.0028248862 0.041449998 0.03297164
0.032784242 0.022171412 0.026550451 -0.021479383 0.036263827 -0.037791707 -0.007573473 0.035738748
0.013320506 -0.00868291 0.0389042 -0.004374128 -0.03460741 0.026300106 0.021944989 0.017906949
-0.029421857 0.013567772 -0.0064556943 0.006607771 -0.022634909 0.028981302 -0.03134648 0.039472137
-0.027060812 0.019752234 -0.003065243 0.0006767234 0.031627197 -0.027827835 -0.0003345124 -0.036535695
-0.0064781816 0.0170383 -0.026771644 -0.028150016 -0.030168625 -0.028226838 0.010017898 -0.0066625476
-0.011457756 0.012496903 -0.011708593 0.0026894961 -0.012779545 -0.030800939 0.010312829 -0.0025309927
-0.0047625927 0.0027346134 -0.0006905238 0.0048830216 0.030415814 -0.0133049935 0.012166378 -0.017324155
0.020456817 -0.0050837845 0.025428329 0.029764507 0.027167115 0.006635363 0.008514386 0.028685134
0.04093035 0.03394985 0.031260934 0.012205138 0.031248491 0.017829183 0.034247424 0.03619081
0.03832331 -0.033325102 -0.018136278 0.006976409 0.00023141723 0.009292842 0.001755978 -0.0014544411
-0.038808502 0.037847508 0.027027804 -0.02903681 0.040698666 -0.023593483 -0.005646845 0.033467997
0.0034641954 -0.02203088 -0.009588163 0.013580736 0.025510143 0.018704873 0.02915826 -0.0067663244
-0.039380237 -0.00880694 -0.020599639 -0.016195267 0.02699507 -0.008430649 0.010448207 0.026375432
0.030557752 0.040469464 -0.0339853 0.013299286 0.0047359727 -0.03735378 -0.006621786 0.036871288
-0.026588125 -0.00011585994 0.009637207 0.004300076 0.014220592 -0.014483578 -0.01034458 0.030048985

network.2.1.weight f4 [128]
00000000: e728 7b3f 8a01 793f 3e95 7b3f b77e 743f
00000010: e958 763f 81b8 723f 3043 7a3f bfde 783f
00000020: 8d17 793f 8396 753f 6326 7c3f daf6 793f
00000030: 9330 793f 80e7 763f 0727 7b3f d0ed 743f
00000040: 338c 773f 17be 793f 9e83 763f a395 813f
00000050: fc52 753f 7f6c 783f b77b 7c3f 4df7 763f
00000060: db9e 773f 3ce0 7a3f 087e 7d3f 381e 783f
00000070: 0bca 783f 1e47 7b3f ffdb 763f f5c4 7a3f
00000080: 4807 7a3f 22a9 783f c756 783f be7b 783f
00000090: 2ce4 783f fbe0 753f 234c 7f3f 8c83 763f
000000a0: 9b5a 743f 4e86 783f e329 7a3f 26fe 773f
000000b0: 95e2 7d3f 3e80 753f 80c5 783f c75a 773f
000000c0: 74c0 793f c969 773f 09a8 773f 9ade 763f
000000d0: 4280 733f a3f1 773f c86a 7a3f 7b0e 793f
000000e0: add3 763f a850 793f de72 783f 4547 793f
000000f0: a9ad 7c3f 5384 7c3f b9ec 793f ac2a 7b3f
00000100: 96a3 793f 0273 783f a6f2 793f 87ef 7c3f
00000110: 040a 803f 7a32 753f 221c 793f 331a 773f
00000120: 431b 793f f316 773f 6af6 793f febd 6c3f
00000130: 0f55 7d3f f6d4 783f cced 773f f105 763f
00000140: 6be6 793f 3f93 7b3f ef70 7c3f 04df 753f
00000150: 6fba 773f c35c 793f d8c2 793f e626 843f
00000160: 0bde 793f 9a40 7a3f 932a 753f a6df 7c3f
00000170: b6b4 7c3f 26c2 763f 5a03 743f 07ce 773f
00000180: b016 7c3f e07a 763f 2bd5 7b3f 53c2 7a3f
00000190: d438 793f e27d 793f 2e2f 7a3f ca01 7d3f
000001a0: 82d9 7e3f 4604 773f d70a 7c3f 4eb0 7c3f
000001b0: 8ab3 7e3f 3d0a 833f a382 793f 4924 763f
000001c0: d828 7e3f 3555 773f 1a46 7d3f e652 803f
000001d0: 79bc 783f aa47 783f a661 753f e8eb 7a3f
000001e0: eb5f 7a3f e9c5 773f 8e0b 7e3f 3bf6 773f
000001f0: 8b74 763f 48ab 753f d683 7a3f c451 793f
0.9810929 0.97267973 0.982746 0.9550585 0.96229416 0.9481278 0.9775877 0.97214884
0.9730156 0.9593279 0.98496073 0.9764229 0.97339743 0.9644699 0.98106426 0.95675373
0.966983 0.9755568 0.9629458 1.012379 0.9582975 0.9704055 0.98626274 0.964711
0.9672677 0.97998405 0.99020433 0.9692111 0.97183293 0.9815539 0.9642944 0.9795678
0.9766736 0.97133076 0.9700741 0.97063816 0.9722316 0.9604642 0.9972555 0.96294475
0.9545075 0.9707993 0.97720164 0.96872175 0.9917386 0.9589881 0.9717636 0.9662289
0.97559285 0.9664579 0.96740776 0.96433413 0.9511758 0.96853083 0.97819185 0.9728772
0.9641674 0.97388697 0.97050273 0.97374374 0.98702484 0.9863941 0.97626835 0.9811199
0.9751524 0.9705049 0.9763588 0.9880299 1.0003057 0.95780146 0.9730855 0.9652435
0.97307223 0.9651939 0.97641623 0.92477405 0.98957914 0.9719995 0.96847224 0.96102816
0.97617215 0.98271555 0.98609823 0.9604342 0.9676885 0.9740717 0.9756293 1.0324371
0.97604436 0.97754824 0.9576809 0.9877876 0.98713243 0.96389997 0.95317614 0.9679875
0.9847212 0.9628124 0.98372144 0.97952765 0.9735234 0.97457707 0.9772824 0.98830855
0.9955064 0.96490896 0.9845404 0.9870652 0.99492705 1.02375 0.9746496 0.96149117
0.9928107 0.9661439 0.9893509 1.0025299 0.97162586 0.9698435 0.95852125 0.98016214
0.9780261 0.9678636 0.9923638 0.9686009 0.9627158 0.9596448 0.97857416 0.9739039

network.2.1.bias f4 [128]
00000000: df63 12bd f2a6 debc 38ec 17bd ac7d 00bd
00000010: e40d 67bd e068 0bbd 4e1a 20bd 9ec1 07bd
00000020: 9efd cfbc f007 dcbc 935b 71bc 1257 8abc
00000030: 8631 bbbc b812 20bd 3b5e 20bd 36dc 4bbd
00000040: 1054 dcbc 040b 1abd 5ddb d2bc 73c7 cabc
00000050: 829e 19bd fb48 fdbc 94de a6bc f2cd 0abd
00000060: 44aa fbbc 4283 80bc a2e5 0cbd b795 d0bc
00000070: fd35 0ebd 2923 cabc 0330 29bd 874a a4bc
00000080: a141 e3bc a322 cbbc f807 b8bc beb0 2cbd
00000090: dc5b febc 5e85 fdbc 55be 34bd cde6 07bd
000000a0: 53f4 16bd 6fdd d2bc fd3d 75bc dc1a f9bc
000000b0: 5ea3 13bd 0b2c babc 1855 09bd 20e1 bfbc
000000c0: d54a e4bc 72de 3fbd de5d 10bd a9d0 02bd
000000d0: d7da 0abd a213 ddbc 063d b3bc c5a0 04bd
000000e0: 4efa 79bd adbf b0bc aa32 84bc a211 89bc
000000f0: 74f4 fdbc 3158 efbc 2a9b 3dbd 93ae 94bc
00000100: 4eca b2bc d97e 4bbc 4cbf e6bc 08a9 cbbc
00000110: 19af 14bd da00 f1bc cc01 afbc e51a 07bd
00000120: 8107 c1bc 8a0b 34bd 6256 9ebc aebc 62bd
00000130: 4295 04bd 8411 b4bc 2b56 f8bc f82f f7bc
00000140: c3e6 cfbc 6de7 bfbc 8049 8dbc 8e0c fbbc
00000150: 8580 f2bc b776 e3bc 13b2 9abc 83f8 58bd
00000160: f54f b3bc 0d00 12bd 1d92 0fbd 77f2 01bd
00000170: 95ce 9fbc fd32 0fbd aee3 57bd 8f9b 1bbd
00000180: 4279 95bc 5443 04bd eab7 02bd cb04 d3bc
00000190: 0949 02bd 381a b3bc 621a a9bc 103e 15bd
000001a0: 3861 8abc 12eb 27bd 3c46 e2bc 40bc d4bc
000001b0: 29bc 31bd a71d 7cbd 46d5 bcbc d482 1cbd
000001c0: 715a 01bd 3a34 04bd 92ea e4bc 7278 90bc
000001d0: e4e9 fcbc 7adc ccbc 7065 12bd a624 abbc
000001e0: cafe 85bc 407c e1bc 0282 24bd 65ce f9bc
000001f0: 3922 e4bc 937f 22bd 65ca dfbc 8e12 f3bc
-0.035739776 -0.027179215 -0.03709051 -0.03136985 -0.05640973 -0.034035563 -0.039087586 -0.033143632
-0.025389489 -0.026859254 -0.014731306 -0.016887221 -0.022850763 -0.03908035 -0.039152365 -0.049770556
-0.026895553 -0.03760816 -0.025739366 -0.024753308 -0.03750468 -0.030918589 -0.020369805 -0.03388781
-0.030720837 -0.015687589 -0.034398682 -0.025462015 -0.034719456 -0.024674969 -0.041305553 -0.020055069
-0.027741255 -0.02479679 -0.022464737 -0.042160742 -0.031049661 -0.030947383 -0.044126827 -0.033179093
-0.0368541 -0.025740353 -0.014968392 -0.030408315 -0.03604447 -0.02272608 -0.033528417 -0.023422778
-0.027867714 -0.046843 -0.03524577 -0.031937275 -0.03390011 -0.0269869 -0.021879684 -0.032379884
-0.061029725 -0.021575773 -0.01613744 -0.01673204 -0.031000353 -0.029216858 -0.046290554 -0.01814965
-0.021824982 -0.01242038 -0.02816739 -0.024860874 -0.0362998 -0.029419351 -0.021363162 -0.032984633
-0.023563148 -0.043956317 -0.0193283 -0.05535572 -0.032368906 -0.021981008 -0.030314526 -0.03017424
-0.02537859 -0.023425782 -0.017246962 -0.030645635 -0.029602299 -0.027766569 -0.01888374 -0.052971374
-0.021888712 -0.03564458 -0.035051454 -0.031725373 -0.019507686 -0.034960736 -0.052707367 -0.03799015
-0.018246297 -0.03229077 -0.031913675 -0.025759121 -0.031807933 -0.021863088 -0.020642463 -0.03643614
-0.01689206 -0.040995665 -0.027621381 -0.02596867 -0.043392334 -0.061551716 -0.023050915 -0.038210705
-0.031580392 -0.03227637 -0.027943883 -0.017635558 -0.030873246 -0.025007475 -0.03574127 -0.020891499
-0.016356844 -0.027525067 -0.040163048 -0.030493924 -0.02784835 -0.039672446 -0.027318189 -0.029671934

network.2.1.running_mean f4 [128]
00000000: ca0a 923e 7c4a 39bd a24f a7bf b2c8 92bf
00000010: cb5b 6f3e 4945 e63e 79ae 233f 1550 50be
00000020: 0a01 bfbf 935d 99bd 24f7 71be 4cfe 0bbf
00000030: 6149 32bf 6c17 63bd 5569 3bbf 88c2 94be
00000040: b547 a7bf 4e96 a7bd c027 f6be 7645 d03d
00000050: b6d2 353f 0b2a 03bf 4b18 813e c740 f6bf
00000060: 9a29 e7bf aeba 16bf 3e2c 29bf 46fe b2be
00000070: 745a a13d 27e3 2fbf 9971 293f f693 90be
00000080: 4b29 9cbf 83fe 50bf 000e 0abf 69da ccbf
00000090: 3f97 d9bf 998f d9bf 415d fd3d 7013 b7be
000000a0: dbdc 8c3f b4cb c43d 3d91 ddbe 27e5 96bf
000000b0: ead1 37c0 1674 57bf 9032 e7bf b5d6 e4be
000000c0: 5704 abbe 4493 8c3f 63e6 f3be 64a6 49bf
000000d0: eaae dd3e 9948 43bf cace 0ebf 0a35 7f3d
000000e0: 5e01 653f 97ab 35bf e523 c1be b55d 53bf
000000f0: 103b a0bf c359 8cbf 56c3 583f 974a 21bf
00000100: dc6b 3bbf 35dc b33e 6092 2bbf 7d21 48be
00000110: a8b5 09c0 57ba 8dbd d1b5 a6bd ca3b c6bf
00000120: 7f87 0fbf a5a1 40be 30b4 c33d 12ad ff3d
00000130: 7ec0 aabf d88c d6bd 4f53 c6bd 2252 d2be
00000140: 4f9f 9fbf a88b 0e3f 6f93 25bf e4c9 91bf
00000150: 7c56 9b3f c902 79bf 7859 2fbf db3c 85bd
00000160: 8cab 07bf f293 11bc 0157 c4bf 9807 36bf
00000170: 1ab8 c4bf aa45 57bf e04c cc3f 4e69 013f
00000180: be5c 9bbd 7ca7 4a3f c2cf fabe 1fe2 09bf
00000190: cf5b 25bf 7c5c 163e e6f4 80bf 7027 00c0
000001a0: 2a4a 75bf bbd2 9ebf 0701 dd3d ca11 a2bf
000001b0: 46aa 223e 6cd5 e53e 0bb2 1bbf 7288 e83e
000001c0: edae 0cc0 4e59 03c0 db6a 11be 600b d3be
000001d0: 9a45 ffbf d589 a4bf ca4d b7bf c549 3cbf
000001e0: 86ac 3ebf 86f5 1bbe b09b 7abf dccd 913f
000001f0: b273 033f 6ab0 383f fd4c 2cbe 156e bfbf
0.28523856 -0.04523705 -1.3071177 -1.1467497 0.2337486 0.44974735 0.639381 -0.20343049
-1.4922192 -0.07488551 -0.23629433 -0.546849 -0.6964322 -0.05544226 -0.732076 -0.29054666
-1.3068758 -0.08182965 -0.48077202 0.101694986 0.71024644 -0.5123603 0.25213847 -1.9238518
-1.8059571 -0.588786 -0.66083133 -0.3495962 0.07878581 -0.6870598 0.6618896 -0.28237885
-1.2200102 -0.81638354 -0.5392761 -1.6004153 -1.6999282 -1.6996948 0.123713024 -0.35757017
1.10049 0.09609166 -0.4327487 -1.1788682 -2.8721871 -0.8416151 -1.8062305 -0.44695058
-0.3340175 1.0982442 -0.4763671 -0.78769517 0.4329751 -0.7628265 -0.55784285 0.06230644
0.8945521 -0.7096495 -0.37722698 -0.8256486 -1.2518024 -1.0964893 0.8467306 -0.6300444
-0.73211455 0.35128942 -0.67020226 -0.19544025 -2.1517124 -0.06920307 -0.081401475 -1.5486996
-0.56066126 -0.18811662 0.095558524 0.124841824 -1.3339994 -0.104760826 -0.096838586 -0.41078287
-1.2470492 0.5568185 -0.6467809 -1.1389737 1.2135768 -0.97269875 -0.68495893 -0.06505748
-0.52996135 -0.008885371 -1.5339051 -0.7110534 -1.5368683 -0.84090674 1.596096 0.5055131
-0.075860485 0.7916181 -0.48986632 -0.5386066 -0.64593214 0.14683717 -1.0074737 -2.002407
-0.9581629 -1.240806 0.107912116 -1.2661679 0.15885267 0.4488939 -0.60818547 0.454166
-2.1981766 -2.0523257 -0.14200918 -0.41219616 -1.9943116 -1.2854563 -1.4320614 -0.73550063
-0.74482 -0.15230379 -0.9789381 1.1390948 0.5134841 0.72144186 -0.16826244 -1.4955469

network.2.1.running_var f4 [128]
00000000: ceea e63e 398d cf3e e71b 913f 3a35 543f
00000010: 2436 bd3e c567 5a3f 1107 ce3e 2f59 523f
00000020: e0f0 563f 1d54 263f cbfc 5a3f 2e54 7a3f
00000030: 891c 643f 362f b83e ea39 483f b3db 093f
00000040: f70e 873f abbf 143f 9da1 093f f3e0 683f
00000050: 9d32 243f e9ae 303f 2ab6 dc3e d7ff b53f
00000060: 51c8 8a3f 106c 4d3f d950 153f c146 503f
00000070: 1cd3 193f 592c 323f e902 f53e 38ec 533f
00000080: 10c2 3f3f 6d54 163f 0909 6b3f ecda 583f
00000090: 0655 833f 6ce3 573f 0d45 103f a3fb 103f
000000a0: 4963 303f a588 e93e 461c 853f f110 813f
000000b0: 5300 ad3f 0d29 533f 5399 9f3f e840 083f
000000c0: e1c7 d63e fb30 133f 79f7 d23e 0027 5d3f
000000d0: 03ac 4f3f 3b0d 1b3f 1c84 1b3f 4bcc a93e
000000e0: 2148 1d3f d783 5f3f 85ab 643f 2273 583f
000000f0: c157 5a3f bc1f 633f a929 023f 8673 743f
00000100: 34ce 923f fb22 183f a273 603f c432 c53e
00000110: da27 a53f a4c3 3b3f c59e 443f d70f 713f
00000120: 5450 983f 2c4e af3e a54c 4f3f e2c5 623f
00000130: 0a48 2c3f 5a82 3a3f 51cb 9e3f 16a1 543f
00000140: 40e4 703f ad67 8d3f 0c81 213f 3e48 0c3f
00000150: b004 673f a348 433f ff71 873f 7fd4 c13e
00000160: 2adb 073f 383a b73e 524b 833f e0c7 503f
00000170: a0a4 713f 54eb 5e3f cab2 4f3f b45c 063f
00000180: 1a35 4d3f 0dd4 293f 1a29 353f fa05 443f
00000190: e5e1 5e3f 4435 1c3f d1b0 9c3f aa4d 7e3f
000001a0: e49e 373f f929 363f aa54 ae3e d903 553f
000001b0: f1b3 a23e 2f2a b63e 75e2 5f3f d2c0 0f3f
000001c0: b1b7 413f dffd 963f c71d b83f a0b4 163f
000001d0: d117 9a3f d482 3d3f 6f53 483f de0b 6c3f
000001e0: 6ac0 c73f 82a1 853f 883b 1e3f 9bef 703f
000001f0: 0c39 113f 8a3a 373f 6f6c 1c3f 3a80 713f
0.45101017 0.40537432 1.133664 0.8289372 0.3695537 0.8531459 0.40239766 0.82167333
0.83961296 0.64972097 0.8554198 0.977847 0.8910604 0.3597352 0.7821337 0.5385086
1.0551442 0.5810496 0.5376223 0.90968245 0.6413973 0.6901689 0.4310773 1.4218701
1.0842382 0.80243015 0.5832649 0.8135796 0.6008775 0.6959892 0.47853783 0.82782316
0.7490549 0.58722574 0.9181066 0.8470905 1.0260322 0.84331393 0.56355363 0.5663397
0.689015 0.45612064 1.0399253 1.0083295 1.3515724 0.82484514 1.2468666 0.5322404
0.4194937 0.57496613 0.41204432 0.86387634 0.81121844 0.60567063 0.6074846 0.33163676
0.61438185 0.87310547 0.8932422 0.8455068 0.8529015 0.887203 0.5084482 0.95488775
1.1469178 0.59428376 0.8767644 0.38515294 1.2902787 0.733454 0.76804763 0.94164795
1.1899514 0.34239328 0.80976325 0.88583195 0.6729742 0.7285515 1.2405797 0.830583
0.9409828 1.1047264 0.63087535 0.5479773 0.9024153 0.7628271 1.0581664 0.37857434
0.5306879 0.35786605 1.0257361 0.81554985 0.9439182 0.8707783 0.81132185 0.52485204
0.8015915 0.6633919 0.7076584 0.7657162 0.8706344 0.61018777 1.224146 0.99337256
0.7172682 0.71157795 0.3404897 0.83208996 0.3177791 0.3557906 0.8745492 0.56153595
0.75670916 1.1796225 1.4384087 0.5886936 1.2038518 0.7402775 0.7825231 0.9220561
1.5605595 1.0439913 0.6180959 0.9411561 0.5672767 0.715737 0.61102957 0.94336283
